MGDML-CNN/MGDML-CNN/Checkpoint/models/ckpt.pth (torch, 55121 bytes, 120 tensors)

layers.0.weight f4 [8, 13]
00000000: e76f 2cbb 87cb 9abd fee3 d13b 27f0 ff3b
00000010: c273 86bb c90e 0c3c f542 353d 62de 693c
00000020: 2cc0 913c bc8c 68bc 3ef9 19bc 1251 313c
00000030: 4d0a 10bd e00b a0bc 1fd4 4abb af7b aa3c
00000040: dc5a 13bd a373 baba 631f 76bd 7388 71bc
00000050: 10f4 513d c776 c23c 336a fb3c c1ce f13c
00000060: b448 aebc 8554 81bc 99b0 07bd 76e5 abbc
00000070: 2921 893c 3aa1 debc 4d1b 56bc cf81 92bc
00000080: 27a3 0abb 1d8c 2a3c f7a5 a0bc f485 3f3d
00000090: d9a4 443c c40d 963d b0ae 3bbc 5aa8 543c
000000a0: c4e2 77bd 0829 503c 6cd3 8c3c ebb8 5cbd
000000b0: e579 16bc a692 4ebc 5101 0b3c c407 333c
000000c0: 2d4b a23d 0785 ecbc a70c ccbb 45ab 2abd
000000d0: 6c61 f73a 4e09 60bd b936 633d d294 233c
000000e0: 3125 523d 6730 1e3c 2007 babc ee35 ae3b
000000f0: 53d6 983c 433d 2abb 803f 413c 844c 4f3c
00000100: a303 bf3b f960 ce3c 91c7 8bbd 6e1d bcbc
00000110: 49d5 163d 2948 3d3d 58cb 213c d5f8 c83c
00000120: 57fe 80bc 6bbf 75bd 01c5 713c 53fa 443c
00000130: ef6b 0abc 71e5 88bc 0ad1 213d d04d ce39
00000140: c4a5 ecbc 957e 8f3c fd99 3fbc 7fd5 f7ba
00000150: f359 933d 443a 89bc 26cd d7ba a09e 29bd
00000160: 5ed1 abbb ee9c 1ebd f4de 223c 693a 613b
00000170: e03c 3fbd f82f 04bd 7c16 d7bc 5f66 68bc
00000180: 3a9b f33c 1f83 e6ba bad8 103d 7ee8 983c
00000190: 3d9f c13c ef2a 283d c610 d1bc f2f4 7b3c
-0.0026311816 -0.07558351 0.0064053526 0.007810611 -0.004103155 0.008548447 0.04425331 0.014274212
0.01779183 -0.01419371 -0.009397803 0.010822551 -0.035166074 -0.019536912 -0.0030949188 0.02081093
-0.035975322 -0.0014225136 -0.060088526 -0.014742005 0.051258147 0.023738278 0.030690288 0.029517533
-0.021274902 -0.015787372 -0.0331274 -0.020983439 0.016739445 -0.027176488 -0.013068032 -0.017884163
-0.0021154375 0.010409382 -0.019610388 0.046758607 0.012002193 0.07326844 -0.011455223 0.012979591
-0.060518995 0.012705095 0.017190658 -0.05388729 -0.009184335 -0.012608206 0.008484201 0.010927144
0.07924495 -0.028872026 -0.006227094 -0.04166724 0.0018873638 -0.054696374 0.05547211 0.009984212
0.051305 0.009655095 -0.022708476 0.0053164875 0.018656885 -0.0025976456 0.011794925 0.01265252
0.005829291 0.025192725 -0.06825174 -0.022963252 0.0368245 0.046211395 0.009875141 0.024532715
-0.015746279 -0.059997004 0.014756442 0.012022573 -0.008448585 -0.016710969 0.039505996 0.00039349357
-0.028887637 0.017516414 -0.0116944285 -0.0018908231 0.07194891 -0.016751416 -0.0016464337 -0.041411042
-0.0052434644 -0.03872388 0.0099408515 0.003436709 -0.046688914 -0.03227231 -0.026255839 -0.014184563
0.029737104 -0.0017586685 0.035362937 0.018665548 0.023635501 0.04105657 -0.025520694 0.015378224

layers.0.bias f4 [8]
00000000: 342e 5eba 0000 0000 0000 0000 0000 0000
00000010: b374 c53a 513c f63a 5f3a fb3a 0000 0000
-0.0008475513 0.0 0.0 0.0 0.0015064686 0.0018786286 0.0019167176 0.0

layers.2.weight f4 [8, 8]
00000000: 487e fb3c 6519 1cbc 901e 893b 25c9 8f3d
00000010: 2ece a1bc e4d8 bb3c 4fda b53b 7b15 3ebc
00000020: cd89 ad3b b16d c43c 13bb 00bc 58c3 943b
00000030: 3536 0b3d 7012 90bd 60da 04bd 4335 dabc
00000040: 5165 9e3c 8574 d6bc 979f 8a3a 5069 25bc
00000050: 1bbb 253d efb6 533c 90c9 b8bc 9f2f cbbc
00000060: 3d55 c23c 7e10 aa3c 374d fabc c66f c5bc
00000070: 2d8e a1bc bf6d c53c b5e3 9a3a db93 073d
00000080: 6778 9bbc 3414 81bc 7425 8bbc da31 a637
00000090: f32d a53c 20a3 453b 2d1d b03b 6207 90bd
000000a0: 31b1 3d3c 2762 653c c8a9 1d3d 8fc9 1b3d
000000b0: 7e88 fc3b f90d 943c 867e 24bc 690c 6dbd
000000c0: 8cb2 e13b bbb6 d33c 96cd 983c 61df 5abd
000000d0: 6415 b7bc 1949 2bbd e844 4d3d 13ed 80ba
000000e0: fece ca3c e284 d83a 7a1f 56bd 7a0a d73c
000000f0: 04be aabd 52c2 09bc 4229 0b3c 0f51 083d
0.030699864 -0.009527539 0.0041845515 0.07020787 -0.019751634 0.02293057 0.005549706 -0.011601801
0.005295968 0.023978086 -0.007857102 0.0045398884 0.033987243 -0.07034767 -0.03243482 -0.026636725
0.01933542 -0.026178608 0.0010576126 -0.010095909 0.04046164 0.012922033 -0.02255705 -0.024802981
0.023722285 0.020759817 -0.030554397 -0.02410115 -0.019721115 0.024100183 0.001181713 0.03309999
-0.01897831 -0.015756704 -0.016985632 1.9811956e-05 0.020163512 0.0030157045 0.005374572 -0.07032658
0.01157789 0.014000452 0.038491994 0.038034018 0.007706701 0.018073069 -0.010039931 -0.057873163
0.0068877395 0.025843969 0.018652719 -0.053435687 -0.022349067 -0.04181776 0.050114542 -0.0009836279
0.024756905 0.0016519094 -0.052276112 0.026250113 -0.08337024 -0.008408146 0.008493723 0.03328043

layers.2.bias f4 [8]
00000000: fe0d ecba 576e 04bb 7e4f b1ba f30a dd3a
00000010: 7795 c43a ce12 eb3a c964 ec3a d86c dfba
-0.0018009541 -0.002020737 -0.0013527719 0.0016864225 0.0014998157 0.0017934681 0.0018035407 -0.0017045988

layers.0.weight f4 [8, 13]
00000000: b72c 25bc b86b e6bb 8afc 85bc 4a3a 073c
00000010: 3c6a 11bd 4190 c9bc 0b11 1d3c c316 973b
00000020: 1388 663d d021 613c 3d79 773c 6379 1b3d
00000030: bcfd 57bd d19a 24ba 71a9 8f3c 905a 973c
00000040: 9b05 1dbd ac31 dabc f8d8 c0bc 48a3 81bc
00000050: 973a 133c 6fe7 42bc 4e7c 82bc d7ef e53c
00000060: af5b 6bbc fc7d b93c ba79 5bbd a912 e23c
00000070: a5d4 1cbc af82 28bc e21d be3c 69b9 20bc
00000080: c60f 61b8 b755 1ebc 0c88 7ebc 62b2 603d
00000090: aa0e 1ebd ba62 30bd 4a34 07bd 1026 6a3d
000000a0: 9e04 31bd 5100 81bc 5ea3 553c 9d72 eebb
000000b0: 7b6a f4bc ccb9 363d 2596 b039 d75e 8abb
000000c0: 3971 5f3c 382f 2abc c46f bbbd 4e19 1ebd
000000d0: debb 82bc e889 efbb 2c56 2dbd b290 223d
000000e0: bf0c 5b3d f780 0abd 46f3 61bc 79e4 e63c
000000f0: 7d0c 743c 5607 0bbc a4f2 10bd b1b8 8cbd
00000100: 33c9 953c 7b57 493d 1e19 5bbd d4de de3c
00000110: 1ca7 f9bc b424 d53c 21a8 453d 39cd 80bc
00000120: c107 23bd 00f0 85bb 6f58 413d ae9b 0bbd
00000130: 81e2 c63c c31c e1bb b3ea 10bd 2eb5 183d
00000140: bd10 07bd a3ff 36bc 658a 9e3c bb2e de3c
00000150: cd63 883c 3447 38bb ab33 fb3b a174 b03c
00000160: c9c1 783c 6bae 72bd a59d 0a3d 35f5 cb3c
00000170: 2d68 863b f272 583d e4ed 99bb 537b d7bb
00000180: a887 93bc 035c 913d fdca 00bc 4828 1d3d
00000190: 9f77 e83a 2281 563d bf30 e3bc 1e42 963b
-0.010081462 -0.007031884 -0.016355772 0.008253643 -0.035501704 -0.024604918 0.009586583 0.0046108677
0.056282114 0.013740972 0.015104589 0.03795756 -0.052732214 -0.0006279173 0.01753685 0.0184758
-0.038335424 -0.026635014 -0.023540959 -0.015824929 0.008986137 -0.011895998 -0.015928414 0.028068466
-0.014365121 0.022643082 -0.053582884 0.027596788 -0.009572183 -0.010285064 0.023207609 -0.00980983
-5.365887e-05 -0.009663991 -0.015535366 0.05485762 -0.038588203 -0.043062903 -0.03300885 0.057165205
-0.043217294 -0.015747221 0.013039438 -0.0072768466 -0.02983593 0.044610783 0.00033681202 -0.0042227316
0.013637834 -0.010387234 -0.09152177 -0.03859835 -0.015958723 -0.007310141 -0.042318508 0.039688773
0.053478952 -0.033814397 -0.013790911 0.028185116 0.014895556 -0.008485636 -0.03538765 -0.068711646
0.018284416 0.049155694 -0.05349075 0.027205862 -0.030475192 0.026018478 0.048256043 -0.015722858
-0.039802317 -0.004087448 0.047203477 -0.034084015 0.024277927 -0.0068698837 -0.035380077 0.03728216
-0.032974947 -0.011169347 0.019353101 0.027121892 0.016649151 -0.0028118612 0.0076660714 0.021539988
0.015182921 -0.05924837 0.033841748 0.024897197 0.004101774 0.052843995 -0.004697548 -0.0065759807
-0.018009022 0.07097628 -0.007860896 0.038368493 0.0017735845 0.052369244 -0.027733205 0.0045855185

layers.0.bias f4 [8]
00000000: 0128 da39 0000 0000 a7d8 b239 4ee6 97ba
00000010: 6f02 cfba d5d3 8a3a 11dd 003b ade2 d33a
0.00041610005 0.0 0.00034112224 -0.0011589022 -0.0015793572 0.0010591695 0.0019663016 0.0016165577

layers.2.weight f4 [8, 8]
00000000: 6be9 ad3b e073 083d a2ed 9c3c ec45 a4bb
00000010: 1e09 b7bc 0e0b 7d3c 24b8 0cbd 3629 ebbb
00000020: bf22 e5bb 4275 b8bc 6a8a e43c 58a5 343d
00000030: 32b4 26bc 83ac f33a 7a7a 49bd ab03 a83c
00000040: 2427 e0bb 52f3 b0bb 28bc e53c 3832 433c
00000050: 282a 8c3b 1993 d63b f84c 34bc 6306 8ab9
00000060: f140 babc f66b 603c 82df 1fbd 8f8c 6dbc
00000070: 9591 693c 3b36 ef3c 4b56 ab3c 5d62 48bb
00000080: fd28 003d a618 bb3a cdef 413c a08d a4bd
00000090: e43e 32bd 438b 96bb 73e9 d8bc 2299 2e3c
000000a0: d4e1 80bc ee16 d83c 03ec 5c3d 673d 8ebb
000000b0: 1b34 2b3d 09db 4fbc 621c 1ebc 718c fb3c
000000c0: 08d5 6dbd 36bd 9fbc dbaf 273d 500d 253c
000000d0: 0f3d 34bd 8dc8 f93c 00f9 5c3c a008 2c3b
000000e0: a580 46bc 3db1 513d d548 08bc a1d1 b9b9
000000f0: c0c6 833c 48c6 413d 944f 2fbd 66fc d3bc
0.0053073666 0.033313632 0.01915628 -0.005013218 -0.022343215 0.01544453 -0.034355298 -0.0071765436
-0.0069926674 -0.02251685 0.027898032 0.044102997 -0.010174798 0.0018590841 -0.04918907 0.020509562
-0.0068406034 -0.0054001 0.028043821 0.011913829 0.0042774864 0.006548297 -0.011004679 -0.0002632617
-0.022736045 0.013697615 -0.039031513 -0.014498844 0.014255901 0.029200664 0.020915171 -0.0030576207
0.03128909 0.0014274314 0.011836958 -0.08034825 -0.04351701 -0.004594238 -0.026478505 0.010656627
-0.015732683 0.026378121 0.053936016 -0.004340816 0.04179774 -0.012686499 -0.009650322 0.030706616
-0.05806449 -0.019499402 0.040939193 0.010073975 -0.044003543 0.030491138 0.013487101 0.0026250258
-0.012115632 0.05119442 -0.008318146 -0.00035442135 0.016085982 0.047308236 -0.0428005 -0.025877189

layers.2.bias f4 [8]
00000000: 5e92 c3ba 52ba ffba f3f6 ceba 4416 e63a
00000010: 24ea c03a 5078 c83a c873 df3a 249e a4ba
-0.001492094 -0.0019510484 -0.0015790149 0.0017554243 0.0014718217 0.0015294645 0.0017048055 -0.0012559337

layers.0.weight f4 [8, 13]
00000000: 7c74 8bbc 1665 143d 9fc7 11bc 0952 503d
00000010: 2cb1 28bd cbfd 613b da9f 8ebb 01b3 6bbc
00000020: 0b53 1cbd 8356 d8bc f3ad 0fbb 6d70 f13c
00000030: 4f4d bdba 7a92 8ebb 63ad 3a3d e5e7 55bd
00000040: 3579 303d 3065 f0bc 0aba bc3c 814c 39bd
00000050: ea8d 15bc 18df bbbc fe58 563d 40c0 193c
00000060: 5220 cb3a 20c6 c13b 2af7 e33c bef0 edbb
00000070: 07bc 5b3c 9650 4cbd 5e6e debc 08a9 513d
00000080: 08ba 10bd 069d a93d 88d5 563c cd01 f53c
00000090: d972 b03d 9459 3b3d 4ba4 69bc f0ae 94bc
000000a0: f6c9 1e3c 38a0 de3c 27a7 df3a 63db ac3b
000000b0: 1abd 3ebc 4927 15bd 6095 2abd f559 883c
000000c0: 0304 2bbd a18d 8ebc 5c54 06bc 84a1 5e3c
000000d0: a036 a9bc d25e afba 13d7 c6bc fb67 943b
000000e0: b110 65bd d975 c03c 3238 6cbd 954d 00bd
000000f0: bda7 383c 071c e8bc 5d45 90bc 1d24 f8bb
00000100: 83e5 213c 6f9f 0b3d 8704 913c 15a3 933d
00000110: fc3c e8bb 88f4 a83c 4d93 9ebc 402a 4cbc
00000120: da33 6abc 01c3 063c 0b26 bf3c 3ffb a6bb
00000130: f3da 2dbb 849a 313c 899b f83c 890e 94bd
00000140: 08ba e2bc 1416 203c a3ae 4a3c ca2f a93c
00000150: e870 073d 8209 70bc bf7c 23bd 543c c7bc
00000160: b8b0 d03c 8525 07bd 45b8 e3bb d1e7 64bc
00000170: 37e2 423b bde3 f1bc 1c6d 413c e7ca cfbc
00000180: e051 f3bc 2afe 95bc c46d 21bd 4099 813c
00000190: e882 0c3b fa14 b0bc 33fb af3c 0ee6 2ebc
-0.017023318 0.036229216 -0.008897691 0.050859485 -0.04118459 0.0034483548 -0.004352552 -0.01438594
-0.038165133 -0.02640844 -0.002192375 0.029472554 -0.0014442595 -0.0043509575 0.04557551 -0.052223105
0.043084342 -0.029345125 0.02303793 -0.045238975 -0.009128073 -0.022933528 0.052330963 0.009384215
0.0015497303 0.005913511 0.027827818 -0.0072613647 0.013411528 -0.04988154 -0.027152237 0.05118659
-0.035333663 0.08281903 0.013112433 0.029908085 0.086156555 0.045739725 -0.014260362 -0.018149823
0.009691706 0.027176008 0.0017063365 0.0052751764 -0.011641765 -0.03641442 -0.04164636 0.016644457
-0.041751873 -0.017401518 -0.008198824 0.013588313 -0.02065593 -0.0013379699 -0.024272477 0.004528997
-0.05592412 0.023493694 -0.05767078 -0.031323988 0.011270461 -0.028333677 -0.0176112 -0.0075726644
0.00988138 0.034087595 0.017702354 0.0720884 -0.007087348 0.020624414 -0.019357348 -0.012461245
-0.014294589 0.0082252035 0.02333357 -0.005095869 -0.002652821 0.010840062 0.030347602 -0.07229335
-0.027676597 0.009770889 0.012370738 0.02065267 0.03306666 -0.014650704 -0.03991389 -0.024320759
0.025474891 -0.032994766 -0.006949457 -0.013971285 0.0029736885 -0.02952754 0.011805799 -0.025365306
-0.029702127 -0.018309671 -0.03941132 0.015820146 0.002144033 -0.021494377 0.021482086 -0.0106749665

layers.0.bias f4 [8]
00000000: 0f43 e2ba 4222 d73a 2d85 ffb9 250d 62ba
00000010: 0000 0000 0374 d83a fd82 d4ba 357e f0b9
-0.0017262417 0.0016413408 -0.00048736614 -0.00086231745 0.0 0.0016514066 -0.0016213354 -0.000458704

layers.2.weight f4 [8, 8]
00000000: 9e5f 81bc d0d4 80bd 5581 afbb dedc 8a3d
00000010: ad76 673d 5e9c 7fbd 45a1 d5bb c8e0 27bd
00000020: 290e 883b 5ede a83b 4eb7 8c3c f4bd 933c
00000030: ac2b 84bc 6ae2 05bc dbee 5ebd 21c0 8ebb
00000040: 65bd 233d 8d7a a8bc 2f0e 73bc 3bf8 143d
00000050: 0ae0 3b3d 8663 54bd e548 d83a f79d 0e3d
00000060: 18d1 0b3c 23f0 d63b 1bf4 163b 0ae6 4a3d
00000070: 6dad b83a a49f 8bba 410c f6ba 9951 3bbc
00000080: 5c3a 933c 8b5e e3bc 0b2a 2d3c d126 f73b
00000090: 6de9 e43c dbca 9cbd bf4d b73c 7a1c 0a3d
000000a0: 9506 f0ba fe55 6dbc 02fc f5bb 96bc 55bc
000000b0: ad80 b5bb be88 34bd aad5 913c a40a 793c
000000c0: 511e b33c 13c2 7cbd e6d5 1bbd 24e6 2ebd
000000d0: 10e1 7abb c87b adbb 902d 483d 6d0d 04bd
000000e0: 28ae 863a fa69 d23c 463f 123d c93b 28bb
000000f0: 859c 6fbc 3319 7bbc 562b 393d 63be 2d3a
-0.015792664 -0.06290591 -0.0053559938 0.06780408 0.056509662 -0.062404983 -0.006519469 -0.040985852
0.0041520786 0.0051534614 0.01717725 0.018034913 -0.016134106 -0.008171657 -0.05442701 -0.0043563996
0.039975543 -0.02056625 -0.014834925 0.036369544 0.045867957 -0.051852725 0.0016501216 0.034818616
0.008533739 0.0065593882 0.0023033682 0.04953579 0.0014089771 -0.0010652435 -0.0018771962 -0.011433029
0.017972164 -0.027755043 0.010569106 0.007542469 0.027943337 -0.07655879 0.02237594 0.033718564
-0.0018312508 -0.014485834 -0.0075068483 -0.013045451 -0.005539021 -0.04407572 0.017802078 0.015200291
0.021865042 -0.06170852 -0.038045786 -0.042699948 -0.003828112 -0.005294297 0.048871577 -0.032239366
0.0010275291 0.0256853 0.035704874 -0.00256704 -0.0146247195 -0.015325832 0.045207344 0.0006627796

layers.2.bias f4 [8]
00000000: c7f5 d4ba 8e56 003b 0193 10bb f8a6 0fba
00000010: 8b27 cbba 8c7c b73a 1aae 5139 947a 133a
-0.0016247564 0.001958284 -0.0022060277 -0.00054798974 -0.0015499456 0.001399891 0.00019996651 0.00056258705

layers.0.weight f4 [8, 13]
00000000: 6562 0c3d 5e0c 18bd 8f05 603d 2b67 6a39
00000010: 2612 49bd 307c 04bd 1c3c 96bc 643b d0bc
00000020: d11c c23b 7544 48bc 3d3f 7dbc 370f 203d
00000030: 8ecc 023d 000a cb3b cb5d fabc 6016 80bd
00000040: af22 25bd 4427 423b 46fa c7bc c447 41bd
00000050: 6f9e e0bc b8dc ad3b 848b debc d354 363c
00000060: 6fbd 16bc 8090 3dbd bbfa 453b 6a5c fcba
00000070: a308 a0b9 5463 60bd 8455 dfbb 9bf6 7d3b
00000080: 9213 83bc c43e 753c 9513 a6bc 532a 9fbd
00000090: 7eab dc3c 761a 0d3d b2d5 823b 6fc9 de3b
000000a0: 3f45 d63b b12c 113d db12 e73c e365 dcbc
000000b0: f3c0 603c b22e 4cbd dadb 583c 46d0 2ebb
000000c0: b40d 113c 0b5f 773c 64d7 243b 1343 13bd
000000d0: 2c86 a6bc 5356 74bd 3da9 533a 2c46 01bc
000000e0: 1162 343d b768 e43c 4d24 333c c701 4d3c
000000f0: 8e4d 8bbb 5a77 0fbd 4499 42bc 4898 e53c
00000100: bcec 85bc 1401 913c 0c18 34bc 29af af3c
00000110: 7b76 453c 1842 32bd 3ca5 893c 551a d23b
00000120: 9710 21bc 74fa c7bc e1cc a13d 8262 c6bc
00000130: de4d 9aba 63ab 3c3d c1fd 1cbd 5c37 21bd
00000140: 5008 683d 512f e6bc 1ff9 a4bc 583a 503c
00000150: 0d78 a83b 8c21 0dbd 7f25 74bd 50f7 e5bc
00000160: 2b5a c2bc c1e2 24bc 8cc7 dfba 8430 863c
00000170: 2125 b93b 6c84 103c ea15 f43c 0396 61bb
00000180: b748 573c 8996 973d eeba 223c 1a0d 3d3d
00000190: 954f fb3b 908b b03c bac1 79bb 9524 173d
0.034273524 -0.03712117 0.0546928 0.00022354412 -0.049089573 -0.032344997 -0.01833921 -0.025418945
0.0059238453 -0.012223353 -0.015456972 0.03907701 0.03193336 0.0061962605 -0.030562302 -0.06254268
-0.04031628 0.0029625455 -0.024411332 -0.04718758 -0.027419297 0.0053058527 -0.027166136 0.011128622
-0.009200438 -0.046280384 0.0030209261 -0.0019253616 -0.00030524013 -0.054782227 -0.006815614 0.0038751725
-0.016000543 0.014968578 -0.02027301 -0.077717446 0.026937243 0.034449063 0.0039927596 0.006798915
0.0065390165 0.03544301 0.028207233 -0.026904052 0.013717878 -0.04984922 0.01323601 -0.0026674434
0.008853365 0.015098344 0.0025152797 -0.03595264 -0.02032765 -0.059652638 0.00080742297 -0.007890265
0.044038836 0.027881963 0.010933948 0.012512631 -0.0042511886 -0.035025932 -0.011877362 0.028026715
-0.016348235 0.01770071 -0.010992061 0.021445828 0.012052174 -0.043520063 0.016802423 0.0064118304
-0.0098306155 -0.024411418 0.07900406 -0.024216894 -0.0011772474 0.046061885 -0.038327936 -0.039359435
0.056648552 -0.028098734 -0.020138321 0.012709223 0.0051412643 -0.03445582 -0.05960607 -0.02807203
-0.023724636 -0.010063828 -0.0017073019 0.016380556 0.005650178 0.008820634 0.029795606 -0.003442169
0.013139895 0.07401759 0.009932263 0.046155073 0.007669399 0.021550924 -0.0038109855 0.03690012

layers.0.bias f4 [8]
00000000: 8552 4ab9 0000 0000 0000 0000 eb3e eb3a
00000010: eee9 c539 3aab 5539 0000 0000 c3a5 44b7
-0.00019294962 0.0 0.0 0.0017947828 0.0003774906 0.0002037705 0.0 -1.1721105e-05

layers.2.weight f4 [8, 8]
00000000: f060 47bc 7520 47bc dfa6 483c f504 583d
00000010: de2c 0bb9 f934 143b e48c 4ebc 200d 3cbc
00000020: 9a3b 03b8 be6e 67bd 3253 36bd e167 d93c
00000030: 9faa efb9 2604 053c f6ef 35bc 1a00 89bc
00000040: 881c 8f3c 460b 36bd 47ba 0a3d 5edd 5cbd
00000050: 194d 253d d88b 923c adb4 ae39 17a7 703c
00000060: 2fba 10bd 154a fabb a2e4 6abb 494e ad3c
00000070: f9a0 3039 87ab 8e3d a640 28bd 57cc 8e3c
00000080: e15a 863c ba64 b9bc fa0f 57bd c304 a73b
00000090: 345f bf3a 64eb 3cbd a75f 81bc da52 38bd
000000a0: b803 643d f79a 073d a2bb 41ba e38d 4abc
000000b0: 5627 60bb 290e 493c d844 9f3c 77ba 973a
000000c0: 4b45 383d e57f 0cbb 07a5 c6bc 97c7 e7bb
000000d0: a12c f5bc d50c 493c 7824 96bc e0e8 84bd
000000e0: e4ff b63c d889 403c d7a5 5b3c 8866 e03a
000000f0: de9b da3c 345a fa3c 8257 493d 5299 d33b
-0.012169108 -0.012153734 0.012246816 0.052739102 -0.00013272787 0.0022614582 -0.012606833 -0.011477739
-3.1288342e-05 -0.056502096 -0.044512935 0.026538791 -0.00045712755 0.008118665 -0.011104574 -0.016723681
0.01746966 -0.044444345 0.033869054 -0.05392205 0.04035673 0.017888948 0.0003332248 0.014688275
-0.03533381 -0.007638226 -0.0035841842 0.021155493 0.00016844635 0.0696631 -0.04107728 0.017431421
0.016400756 -0.022631038 -0.05250547 0.005097003 0.0014600516 -0.046122923 -0.01579268 -0.04500089
0.05566761 0.03310677 -0.0007390325 -0.01236293 -0.0034203134 0.012271442 0.019442007 0.0011575957
0.044987958 -0.0021438536 -0.024248613 -0.0070733535 -0.029928507 0.012271126 -0.018327937 -0.0648973
0.022338815 0.0117516145 0.0134062385 0.00171204 0.026685651 0.03056059 0.04915572 0.006457486

layers.2.bias f4 [8]
00000000: f8fa 3e3a 439d d83a 7430 16ba 5409 e53a
00000010: 109d ab3a b868 b1ba 8919 86ba 6f5c b53a
0.0007285322 0.001652636 -0.0005729266 0.0017474093 0.0013093073 -0.0013535237 -0.0010230999 0.0013836751

layers.0.weight f4 [8, 13]
00000000: db67 42bd a650 81bc bb43 c6ba ea58 0fbd
00000010: a419 18bc 7a6c 153d 4fee 883d 13a5 ffbc
00000020: 9031 13bb 1d7a 0cbc 839d 323c 82f6 9f3b
00000030: c9a6 1dbc eb0a cdbc c48e 263d edbc 203b
00000040: 707c e6bb d11f 05bd e5d2 8cbc 23df ca3c
00000050: 589b 593d 2ea0 84bc a704 0d3c 45f2 df3c
00000060: 7efc 3a3c 332e 19bb 0c40 f4bc e601 c0bb
00000070: 47ee 643c 6e51 62bd 0b40 c73c 98ee 8d3c
00000080: 4d01 78bd 2d38 5c3c f1d3 ab3c a074 f53b
00000090: 51c5 de3c 8e6b 06bc 9bf1 a33c b1d7 09bc
000000a0: a377 843c a707 cd3c e938 833b 775d 25bd
000000b0: cbb2 6e3c 548c 9c3b 1e47 02bc c93c c13c
000000c0: b1d6 533b 1851 98bb eae2 3a3d e9c8 0fbc
000000d0: 8bc2 8e3c a59d 34bd 92ae f2bc ad1f 203d
000000e0: 76ce 9cbc 5146 30bd 0574 5c3d 1d25 f43c
000000f0: bc64 f0bc 37fa c0bc 8c94 dbbc 0871 c6bb
00000100: 6635 3fbd 0298 243d e70e 9dbc b613 fb3b
00000110: 4acd 82bc 01a0 d6bc 5959 a4bb e7d0 83bc
00000120: 95ac f1bc bce8 c53c 0073 a63d 461a e0bb
00000130: a940 153d 14f0 093d 7b64 fabc 48b4 893c
00000140: 0347 cb3b ed02 37ba 2940 55bd 9d6f 203c
00000150: f8ea aabc 993f d0b8 d87d 29bb c81e fbbc
00000160: fb7f 60bd 7bdf 343c 86bb 7b3c f8d3 a1bc
00000170: d365 a1bc acf4 583c 2b9c 90bb 2236 0bbd
00000180: 88ef 1cbd df8c b7bc 1297 30bc 0605 acbd
00000190: 9e52 1bbc cc34 88bb d778 803c ca0d ab3c
-0.047462326 -0.015785526 -0.0015126386 -0.034996904 -0.009283457 0.036480404 0.06686079 -0.031206643
-0.0022459961 -0.008574036 0.0109018115 0.004881681 -0.009622284 -0.02502962 0.040663496 0.002452667
-0.007033877 -0.032501046 -0.017190406 0.024764603 0.053126663 -0.01618966 0.008607066 0.027337203
0.011412738 -0.0023373484 -0.029815696 -0.0058596013 0.013972825 -0.05525344 0.02432253 0.017325684
-0.060548116 0.013441128 0.020975085 0.0074907094 0.027193697 -0.008204354 0.020012667 -0.008413241
0.016170328 0.025028063 0.004004587 -0.04037234 0.014568995 0.0047774706 -0.007951526 0.023588555
0.003232401 -0.004648339 0.04562656 -0.008775928 0.01742675 -0.044095654 -0.029624257 0.03909271
-0.019141417 -0.04303581 0.053821582 0.029802853 -0.029344909 -0.023556812 -0.026804231 -0.006055955
-0.046681784 0.04018403 -0.019172145 0.007662262 -0.01596703 -0.026199343 -0.005015534 -0.016090823
-0.029501239 0.024158828 0.08127403 -0.0068390695 0.036438618 0.033676222 -0.030565491 0.016809598
0.0062035336 -0.0006981332 -0.05206314 0.009792236 -0.020863995 -9.930059e-05 -0.0025862362 -0.030654326
-0.05480955 0.01103961 0.015364533 -0.019754395 -0.019701874 0.013241928 -0.004413148 -0.033987172
-0.038314372 -0.02240604 -0.0107782055 -0.08399396 -0.009480147 -0.0041566845 0.01568262 0.020880599

layers.0.bias f4 [8]
00000000: 749e 59ba 103b 193a b04d 2fb7 c889 cb3a
00000010: 5ca3 80ba cbcb cf39 0000 0000 0000 0000
-0.00083015044 0.0005845288 -1.0448901e-05 0.0015528733 -0.000981431 0.00039633954 0.0 0.0

layers.2.weight f4 [8, 8]
00000000: f83f 693d f981 aa3c 3378 9abb 5f03 20bd
00000010: a462 71ba 8cb8 d8bc 5359 14bb 005f 3a3d
00000020: 9aad 0ebd c545 8c3c bb42 513d 164f 69bb
00000030: a814 35bd d3ab 573c 9c55 3d3c 78fa 1bbd
00000040: c04e 6e3c 133b 1bbd 6a42 cf3b cd2a cd3c
00000050: 8893 d63c 4335 3b3b 7055 41bd 5a96 9cbc
00000060: cadd 99bc 7f0f 85bd 65e2 0f3d 1aa0 3ebd
00000070: 9d6d 033d 24b6 24bd a322 1a3d afdf e6bc
00000080: 578e a9bb 8c23 5fbc ebc4 dd3c fb63 c5bc
00000090: 7499 063c 9361 fcbb dace b43c 0f6f a4ba
000000a0: 66b3 023d 8e90 1cbd e710 d3bb b7f0 1bbd
000000b0: a320 443d d8cc 88bb d5ef 8a3d 3ed4 5cbc
000000c0: 45b2 cfbc 6e25 0d3d 98ce 713c 6f2b 35bd
000000d0: 792e 11bd b799 38bb 121c 76bc eae4 643b
000000e0: 55ee e63c f954 63bc 0243 263b 2a1b dd3c
000000f0: 763e 95bd 0223 8ebc c557 2c3d 90ed c43c
0.05694577 0.020813929 -0.004714036 -0.039065715 -0.0009208119 -0.026455186 -0.002263625 0.045500755
-0.034833528 0.017123112 0.05108903 -0.0035600117 -0.044209152 0.013163525 0.011556055 -0.038080662
0.014545143 -0.037898134 0.006325056 0.025044823 0.026193395 0.0028565682 -0.04720062 -0.019114662
-0.018782515 -0.06497096 0.035128016 -0.046539403 0.032086957 -0.040212765 0.03763069 -0.028182833
-0.005174439 -0.013619315 0.027071437 -0.024095526 0.008215297 -0.0077020614 0.02207129 -0.0012545305
0.03190937 -0.038223796 -0.006441224 -0.03807136 0.047882687 -0.00417481 0.067840256 -0.013478337
-0.02535356 0.034459524 0.014758728 -0.044230875 -0.03544471 -0.0028167793 -0.015021341 0.0034926482
0.028189817 -0.0138752395 0.002536953 0.026990492 -0.07287304 -0.017350677 0.04207589 0.02403906

layers.2.bias f4 [8]
00000000: a77e 9eba 5937 df3a b0f8 ed3a 05d8 e1ba
00000010: 2d68 87ba fd9a ef3a 925e e8ba 5065 c739
-0.0012092189 0.0017030045 0.001815578 -0.0017230517 -0.001033073 0.0018280443 -0.001772838 0.00038031721

layers.0.weight f4 [8, 13]
00000000: 4195 12bd 5711 863b a4ab ad3c 27fd 72bc
00000010: 5744 5fbc 9ec6 cc3c becb 033d 6a0a 833d
00000020: 2100 b9ba 7ae7 a53c a5e3 debb b46a 76bc
00000030: 90d2 733c 6959 05bd 0998 a8bc 9631 033d
00000040: 511d 22ba bce8 b83b ec02 173c 95b9 d73c
00000050: c157 40bd d4ed d33b ea66 463b 6754 8f3b
00000060: 58f5 393c 701f 97bc beff 17bb 2543 8a3a
00000070: 5c7a b038 0035 be3b d8fb a93a 3fe5 3a3c
00000080: c124 3a3c cb32 45bd e504 2f3d 1f63 0a3d
00000090: 5c89 d93b f3b2 cc3c 8cfa 873c b903 0dbd
000000a0: 1a29 3d3d 4677 a53b 702b 5ebc 0bd9 eebc
000000b0: 7cac f43b d900 723c 1493 24bc a8f5 34bd
000000c0: 792a 6c3c f7b3 773c 8607 72bc ecf2 493d
000000d0: f423 78bc 74e9 6d3d 3f13 6f3c 0967 c9bc
000000e0: 33f9 dc3b 691e 8dbd 1ff2 6dbb ec97 52bd
000000f0: 1dfd 683d fe50 e5bb b1d6 ddbc fb00 e83c
00000100: cbad c73c 2e18 66bc eb98 3cba 964d 3dbc
00000110: 3f78 66bc 7ae0 91bb ff63 703c 03c2 af3c
00000120: 2a92 0dbd b467 03bc 1d80 943c 339e 583c
00000130: 89f5 793c 9276 2ebd e606 93bc d4b3 68bc
00000140: 7a67 563c 56b2 903c ddba 22bd b971 bd3c
00000150: 5d87 2f3d d2e7 f7bc 99c8 8abb 450a 313c
00000160: bf4d 9ebc 4b6b 273c 8843 bb3b 815f 703c
00000170: 3ee1 1dbd 6d3f 42bc 443b d4bc 07af 03bc
00000180: 89ff 613c ae11 a939 0df8 b4ba 85db 863c
00000190: 7cf1 b93a 9f4c 11bd fae1 dcbc 8150 1d3d
-0.03578687 0.0040914225 0.021200009 -0.014830864 -0.013627133 0.024997052 0.032176726 0.06398471
-0.0014114418 0.020251978 -0.0068020397 -0.015040088 0.014881745 -0.03255597 -0.020580309 0.03202971
-0.0006184178 0.0056429785 0.009217005 0.02633361 -0.04695869 0.0064675603 0.0030273744 0.004374075
0.011349998 -0.018447608 -0.0023193206 0.0010548575 8.415125e-05 0.005804658 0.0012968732 0.011407196
0.011361302 -0.048144143 0.042729277 0.033785935 0.006638689 0.024987673 0.016598962 -0.03442738
0.046181776 0.005049619 -0.013560161 -0.029156229 0.007466851 0.01477071 -0.010044832 -0.04417959
0.014414423 0.015118591 -0.014772302 0.049303934 -0.015145291 0.058083966 0.014591991 -0.024585264
0.006743574 -0.06890566 -0.0036307645 -0.051414415 0.056882013 -0.0069981804 -0.027079912 0.02832078
0.024374863 -0.014043851 -0.00071944174 -0.011554142 -0.014066755 -0.0044518085 0.014672278 0.021454817
-0.03456322 -0.00802033 0.018127495 0.013221311 0.015256294 -0.042593546 -0.017947625 -0.014203031
0.013086194 0.017663162 -0.039728988 0.023125516 0.0428537 -0.030261908 -0.004235339 0.010805671
-0.019324182 0.010218452 0.0057148375 0.014671207 -0.038544886 -0.011855942 -0.025907166 -0.008037335
0.0137938345 0.00032247364 -0.0013806835 0.016462097 0.0014186348 -0.035473462 -0.026963223 0.038406853

layers.0.bias f4 [8]
00000000: e382 0e3b e66a c5ba e479 da3a 621a b93a
00000010: 2552 2eba 0000 0000 e531 e33a 0000 0000
0.0021745495 -0.0015061765 0.0016668406 0.0014122243 -0.0006649814 0.0 0.0017333595 0.0

layers.2.weight f4 [8, 8]
00000000: 16c5 973b 34d2 6fbd 47ce 193d 6d3a b23c
00000010: c800 3d3d 4d9f 3e3d 3cef 093d 1f2a ba3b
00000020: a7da 533c 4865 babc 1ce6 2dbb 46f6 8ebd
00000030: d9e8 5bbc 8be3 16bc 3f03 c7bc 08bd ee3c
00000040: e7fa 643c ce73 083d 3e9e b2bc e659 cbbc
00000050: b643 0ebc 527b b03a 5426 bcbc 677d aebd
00000060: cd10 3e3c a4e8 0a3a cf06 39bc 8961 96bc
00000070: 77b3 cb3c cfa9 903d f0eb e3bc 8a87 5dbc
00000080: b603 0dbd 1702 1c3d 727f d6bc cdcf 05bd
00000090: 1bec 26bc ef28 98bc 01eb 0cbd f4f8 25bd
000000a0: 2880 3b3b 3e02 043d 6d08 853b 1916 623d
000000b0: 97a0 783c a7ad 473c 94f7 f1bc 55ea 143d
000000c0: da4a 74bb c55b e03b 0259 c23a e853 ea3a
000000d0: 9c41 103d 50ca e23b 272f 763d 253a c33c
000000e0: fca8 653c 2eef a63c 88f3 64bc 7b55 c63a
000000f0: 6d2b 0fbd 82be 533d f0eb 333c f5bf eb3c
0.004631649 -0.058550075 0.037550237 0.021756375 0.046143323 0.04653864 0.033675417 0.0056812908
0.012930549 -0.022753373 -0.002653486 -0.06980567 -0.013422214 -0.009209524 -0.02429354 0.029142871
0.013975835 0.033313565 -0.021803971 -0.02482314 -0.008683136 0.0013464487 -0.022967495 -0.08520012
0.011600685 0.00052989484 -0.011293127 -0.018357055 0.024865849 0.070636384 -0.027822465 -0.013521085
-0.034427367 0.03808793 -0.026183818 -0.032668877 -0.010188128 -0.018574206 -0.034403805 -0.040520623
0.0028610323 0.0322287 0.0040598423 0.055196855 0.015175006 0.012187398 -0.029537 0.03635629
-0.003727606 0.0068468773 0.0014827552 0.0017877789 0.03521882 0.00692109 0.06010356 0.023831436
0.01401734 0.020377722 -0.013974078 0.0015131676 -0.034953523 0.051695354 0.010981545 0.028778056

layers.2.bias f4 [8]
00000000: 1bbb e03a 9a35 e03a 82ea d5ba 4b7b caba
00000010: 0846 d3ba 6e5f 6c3a f101 c63a 80aa c7ba
0.0017145606 0.0017105818 -0.0016320499 -0.0015448121 -0.0016118893 0.00090169057 0.001510678 -0.0015233308

layers.0.weight f4 [8, 13]
00000000: ad87 77bc 1ef4 0b3c c2b2 b63c 2850 163c
00000010: 9826 7a3c 09c2 a43c 547c c93b f70a 1abd
00000020: 7368 133c 6aa6 13bd aa01 3bbd 9ffc b5bc
00000030: 1b1b 2cbd a390 923c 3ac6 1339 1ae5 65bc
00000040: 7409 c6bc bc14 75bc 126f 323d d203 313c
00000050: 9b15 e93b 0d3d 48bd bdb4 623d 078d d73c
00000060: f2cb 113d cf5a bfbb cf0a 3f3d 7577 03bd
00000070: 5336 a7bc 2d38 f93c 48fb 283d f27b f6bc
00000080: bcef 363c 37a7 a8bc 8731 d6bc 0c52 59bc
00000090: 809f 0f3d 46ba 74bd 6cf7 f43b 1ae3 d13a
000000a0: bd4d 43bb 3608 39bc 6c86 43bd a698 a03c
000000b0: d12b 8a3c eb43 ffbc a29e fc3c 5ebe f23c
000000c0: 263a 17bb a69e e13a d151 92bc 4b43 94bc
000000d0: 2b89 0f3d 5aab 12bd 5ae9 c63c 90b9 7c3c
000000e0: 3fb1 6cbc 82ad 893d 5d2c 72bb c3c4 193d
000000f0: c781 843c 0848 46bd ab6d 303d 68da 35bb
00000100: b4fd 273d 859a b5bc 77fb 68bc 0672 453a
00000110: 3d46 96bc b3d1 743b acb7 233d bf70 2d3d
00000120: 2811 89bc 8966 10bc 53b5 683c 13c4 2c3c
00000130: 4d58 423c 5773 85bc 11a9 2d3b 41a4 183c
00000140: 8280 c4bb 78be aa3c b1d6 463b ad90 453c
00000150: 12d0 6a3c 2c45 84bc 7cfd a9bc 4d4d 9d3b
00000160: c777 7b3d cd58 38bc f821 333b 132f 2fbc
00000170: b11c cd3c 21d1 88bc cb1f 3ebd f89d d6bb
00000180: 2ca7 ee3c 3745 573d 1fe8 133c 3ef6 e6bc
00000190: 3403 ed3c 2bf0 8e3c 212e 77bc 6afd edbc
-0.015108031 0.008542089 0.022302035 0.009174384 0.0152679905 0.020112054 0.0061488543 -0.037608113
0.008997071 -0.036047377 -0.045655884 -0.022215186 -0.042018037 0.017891234 0.00014092858 -0.014031673
-0.02417443 -0.014958557 0.043562956 0.0108041335 0.0071131713 -0.048886348 0.055348147 0.026312364
0.035594888 -0.0058396826 0.046641167 -0.032096345 -0.020411646 0.030422295 0.041255265 -0.030088399
0.011165556 -0.020587547 -0.026146663 -0.01326419 0.03506422 -0.059747957 0.007475784 0.0016013116
-0.0029800974 -0.011293462 -0.047735617 0.019604038 0.016866596 -0.031160315 0.03083736 0.02963179
-0.002307543 0.0017213419 -0.017861279 -0.018098494 0.035042923 -0.035807945 0.024281193 0.015425101
-0.014446556 0.06722547 -0.0036952712 0.037541162 0.016175164 -0.048408538 0.043073338 -0.0027748588
0.041013435 -0.022168407 -0.01422011 0.00075319444 -0.01834404 0.0037356436 0.039970085 0.04234385
-0.016731814 -0.008813509 0.014203387 0.010544795 0.011861873 -0.01629035 0.0026498477 0.009316505
-0.0059967646 0.020842776 0.0030340368 0.012058419 0.014331834 -0.016146265 -0.020750754 0.0048004747
0.061393525 -0.0112516405 0.002733348 -0.010692376 0.025038095 -0.016701283 -0.04641704 -0.006549593
0.029132448 0.052556243 0.00902751 -0.02819359 0.028932191 0.017448505 -0.015086682 -0.029051501

layers.0.bias f4 [8]
00000000: f721 d9ba f288 62ba 4035 d2ba 0000 0000
00000010: 1d66 d6ba 3b28 0f3b 910f d5ba 5831 3239
-0.0016565908 -0.0008641622 -0.0016037598 0.0 -0.0016357336 0.0021844048 -0.001625525 0.00016993785

layers.2.weight f4 [8, 8]
00000000: f6f0 513a 3e49 34bd b44b 8aba 5d32 6abc
00000010: 48a5 39bd 704d 98bc 284e ef3c ff86 273d
00000020: 74d5 593c 8b25 143d d979 8c3c e104 903b
00000030: 0240 9fba ebb8 a1b9 5295 523d a521 c23c
00000040: 619d dbba 66ef 0fbd a70d 01bd 0e58 033b
00000050: c6f4 b13a 1355 39bc a0c1 5fbd b292 183b
00000060: c0a5 a53c 122c 933c 1a4a a63c 23f4 b83c
00000070: d6f3 f2bc 709d 0b3d d609 8dbc 79e0 2c3c
00000080: c8c7 b7bd 6845 a2bb fc4b e4bc 14d3 453d
00000090: 8196 91bc 6b7f f73b 4f94 57bd a68a 1cbc
000000a0: 173e 113d 9449 a6bc aef6 fabb 16e3 2ebd
000000b0: 7ae0 3c3d 3fb3 bc3b 1465 4ebc 3b63 a4bc
000000c0: 9b9b 05bd ccb4 aabc ea3c 3d3c ef4d 7b3c
000000d0: 9f92 363c 1bc7 59bc 8eac a33a 87ee 883c
000000e0: b78d 51bd 32db 263c 315e e8bc c9ba 62bc
000000f0: 3b3b 473c 469e cfbb 8eb4 77bc d82b 403c
0.0008008623 -0.04401516 -0.0010551126 -0.014294234 -0.04532364 -0.018591613 0.029212072 0.040900227
0.01329552 0.036168616 0.017147945 0.004395113 -0.0012149813 -0.00030846088 0.051411934 0.023697684
-0.0016755277 -0.035140418 -0.03150716 0.0020041498 0.0013576976 -0.011311787 -0.054628015 0.0023280797
0.020220637 0.01796535 0.020299006 0.022577351 -0.029657286 0.03408569 -0.017216604 0.010551565
-0.08973652 -0.0049521215 -0.027868263 0.048297003 -0.017771961 0.007553031 -0.052631672 -0.009554541
0.035459604 -0.020298757 -0.007658801 -0.042697035 0.046112515 0.0057586725 -0.012597341 -0.020066848
-0.0326191 -0.020838164 0.011550168 0.015338405 0.011143356 -0.013292099 0.0012487338 0.016715301
-0.05116054 0.010184096 -0.028365226 -0.013838478 0.012160118 -0.0063360063 -0.015118731 0.011729203

layers.2.bias f4 [8]
00000000: c80c c73a 3b79 d0ba f2d6 d13a 414e d73a
00000010: 0307 dc3a 14d9 dcba a41f a2ba 8063 d23a
0.0015186304 -0.001590527 0.0016009493 0.001642652 0.0016786758 -0.0016849362 -0.0012369049 0.0016051382

layers.0.weight f4 [8, 13]
00000000: eba9 c73b f539 823b 9a53 b9bc 08a3 243c
00000010: d3ad 543d 4ceb 013c 1b28 b93c ac7e 623d
00000020: 28c1 46bd 8409 ebb9 6487 d9bc b362 8f3b
00000030: 0c5b 903d 1d5a 06bc 4f5d 613b 4768 80bc
00000040: 652f ec3c f1e5 16bd 31dd e83c c6c1 b93c
00000050: 13d7 613c 78fa 93bc e2e2 c2bc 9b71 cc3a
00000060: ff85 5cbc a769 1bbc 7e3f b73c e622 ac3c
00000070: 22b4 d1bc 3a4a 1abd 437d 87bc d0ee 263d
00000080: 6483 0fbc 9a67 8bbd 4f73 b7bb 93d5 b63c
00000090: aed4 e73c 5c07 7cbd b3bf 7cbc 479d d23a
000000a0: 89f4 0ebc 6f71 a03b b471 603b 8c3a fd3b
000000b0: 93be 18bd 2c94 fbbc e89c acbc be55 a0bb
000000c0: 4317 703c 265d 59bc 5928 9ebc 453d cfb9
000000d0: 67b2 303c 81bc 39bc 16bf e23b d3f0 ec3b
000000e0: 0e47 8cbd bc52 d3bc ad22 043d 41e9 9cbc
000000f0: 70c0 32bc 2c9d a03c 2d2d 1ebd 83d5 90bc
00000100: 4ef0 863d 01e1 7cbc 69b7 3dbd 2bd9 ab3c
00000110: be2b 61bc 3b5b 0d3d 1fd4 e0ba 6f6b d03c
00000120: 2ac9 2f3d 9d58 b83b 0c3f 3cbd 1161 de3c
00000130: 210a 11bd a3ff b23a 39b3 94bc 209d 073b
00000140: 653c b93c b72c 09bc 7ce8 d13b b2e6 e1bb
00000150: a378 9e3c e25e d23c 41ca 5c3b 982b 8fbd
00000160: aab8 1ebc df82 223b 20f2 833c 45f6 d4bb
00000170: 286c e33c fc99 10bd 3fda debc 347c d6bb
00000180: ba6c 10bc ed1f 8f3c a8ad 233a f346 edba
00000190: 9a0e 98bd cf9e 9f3c 1135 2bbd 7232 d7bc
0.006093254 0.003974194 -0.022622872 0.010048635 0.051923584 0.007929634 0.022602132 0.055296585
-0.048524052 -0.00044829783 -0.026553817 0.0043757795 0.07048616 -0.008200196 0.0034387892 -0.015674723
0.028831193 -0.036840383 0.028425785 0.022675406 0.013784188 -0.018063769 -0.023789827 0.0015597822
-0.0134596815 -0.009485639 0.022369143 0.021012735 -0.02559859 -0.037668444 -0.016539222 0.040755093
-0.008759353 -0.0680687 -0.0055984627 0.022318637 0.028299656 -0.061530456 -0.015426564 0.0016068601
-0.008725294 0.004896335 0.003424746 0.0077279266 -0.03729112 -0.030710302 -0.021070912 -0.0048930338
0.0146539835 -0.013266837 -0.019306349 -0.00039527766 0.010784722 -0.011336447 0.006919752 0.007230857
-0.0684949 -0.025796287 0.032259632 -0.019154193 -0.0109101385 0.019606195 -0.0386173 -0.017679935
0.06588803 -0.0154345045 -0.04631749 0.020977577 -0.013743339 0.034510832 -0.0017153061 0.025441853
0.042916454 0.005625798 -0.045958564 0.027145894 -0.03541005 0.0013656508 -0.018151866 0.002069302
0.022611806 -0.008372477 0.006405888 -0.006893956 0.019344633 0.02568001 0.0033689889 -0.06990737
-0.009687582 0.0024797244 0.016106665 -0.006499084 0.027761534 -0.0353031 -0.027203677 -0.006545568
-0.008814985 0.017471278 0.00062438333 -0.001810281 -0.0742466 0.019484906 -0.041798655 -0.026269171

layers.0.bias f4 [8]
00000000: b82b c83a 6fcf de3a ab27 803a 0000 0000
00000010: 0000 0000 0bff 3dba 9ee8 103a 9866 1839
0.0015271818 0.0016999076 0.0009777447 0.0 0.0 -0.0007247782 0.0005527827 0.00014534069

layers.2.weight f4 [8, 8]
00000000: bf07 733d 00af dabb c081 dc3b 6d22 c33a
00000010: c77f af3c f81a 033d 79fa 843c cefc 6bbc
00000020: aa18 01bc a136 613b 812f cb3c 278e 173d
00000030: bcc8 a7bd 7abd a1bd 0509 d8bb b645 333c
00000040: 6c78 60bc f3db 32bc df06 92bd 7488 f6ba
00000050: 8587 283d 3e8b 873c a59f c23c 23d6 05bd
00000060: 0894 db3c 99dd 0d3d 8854 063c 2ede 22bc
00000070: ce4f ebbc 3e92 463b 9012 96bc 1cee 723d
00000080: 5fae b23c a5e7 abbc 6a64 293d 4096 983b
00000090: 5478 8e3c 49c9 923c 497e 65bd e057 2f3a
000000a0: ce4b 063d 7841 fabb 7537 44bb 5cf5 023a
000000b0: c4b2 f0bb 925d 71bc 415e f6bb 81f5 2e3d
000000c0: 4888 4dbd 0a99 2e3d b452 89bc d7ed 4fbc
000000d0: 502a 71b9 6db9 85bc 74db 963c 201a ad3a
000000e0: f117 aa3a 054a b5bc f76d aabc 91cc 88bc
000000f0: f9d4 953c 9e97 a33c c8c3 18bd e03b 43bd
0.05933356 -0.0066736937 0.0067293346 0.0014887579 0.021423234 0.03200814 0.016232716 -0.014403535
-0.0078794155 0.0034364837 0.024802925 0.0370008 -0.08192584 -0.07897468 -0.006592872 0.010941913
-0.013700586 -0.010916698 -0.07130217 -0.0018808977 0.041144866 0.016545888 0.023757765 -0.03267492
0.026803985 0.03463516 0.008198865 -0.009940667 -0.028724577 0.003029957 -0.018319398 0.05930911
0.021811662 -0.02098448 0.041355528 0.004656583 0.017391361 0.017918246 -0.056028638 0.00066888146
0.032787137 -0.007637199 -0.0029940282 0.0004995668 -0.0073455293 -0.014731782 -0.00751856 0.0427146
-0.050178796 0.04262642 -0.016763069 -0.012690983 -0.00022999314 -0.01632377 0.01841519 0.0013206638
0.0012977106 -0.022130022 -0.020804388 -0.016699107 0.01829003 0.019969758 -0.037296087 -0.047664523

layers.2.bias f4 [8]
00000000: 1bcc bf39 308f df3a d402 cfba 10cc e03a
00000010: edf9 ddba b774 db3a a8a0 f3ba c70f e0ba
0.0003658243 0.0017056223 -0.001579369 0.0017150659 -0.0016935446 0.0016743158 -0.0018587308 -0.0017094546

layers.0.weight f4 [8, 13]
00000000: 512c 8dbc 9a43 443d abed 583c eeb3 2fbc
00000010: 1d4a c1bc a622 46bd 5437 06bd af7f e6bc
00000020: 2683 3dba 52e1 363d a858 35bd 2e84 553c
00000030: 03ec ebbb 0d1a 123d 436e 7fbd cd6c cfbc
00000040: 82f2 e4bc d54f 903c ffd9 0abd 985f 583c
00000050: ff74 e2bc 0187 e1ba 9def 64bd 7151 253c
00000060: 8cdf 183c 08a1 d6bc cb25 1ebc e15c 76bb
00000070: 175c a3bc c0b0 7dbc 5d38 edbc 2c70 493d
00000080: cbe0 df3b 3b98 38bc 09cf 7cbd a30c 45bd
00000090: a530 1bbc c3f5 3dbc 613b 4c3d 04e9 03bc
000000a0: a70c 933b 3af6 c63c 53bc 44bc e878 863c
000000b0: f634 dd3c f4aa 64bc cea9 a53d 0e83 10bd
000000c0: d169 aeba 0c69 8ebc 21c6 80bd 13d6 a6bb
000000d0: 1bca a23b 4e8f b4bc 3c1b 87bb 909d d83b
000000e0: 0cce 82bc 495e 823d b1c9 b13b e16c c6bd
000000f0: 8097 8f3b c0aa 18bc 38c5 003d 44e4 a5bb
00000100: a9e9 99bb e025 a23c d408 523c 7e89 36bd
00000110: 8c68 803b dca2 a7bd e8d1 473d 7357 303d
00000120: c2cb 8e3d 2893 b3bc 8888 5dbc aa25 f23c
00000130: 2789 803c f10a 02bc 0deb 26bd 41fa 98bc
00000140: 03e9 e03b 4ed8 0abd 173b 433c 9d38 23bd
00000150: eba8 b13a 4245 9b3c dd08 fc3c 112d cabc
00000160: 59ba 32bd 45b4 1f3c bc64 59bd 3031 7c3b
00000170: 8185 073d b256 1d3d 013b 2f3d 6203 83ba
00000180: 3dc1 d5bc 183d c3bc 79d2 753c 090f c8bb
00000190: ddf4 943c 24e7 62bd 195e 9f3b 6921 3bbc
-0.017233046 0.047916032 0.013240258 -0.010724051 -0.02359491 -0.048372887 -0.03276761 -0.028137056
-0.00072293205 0.044648476 -0.044274002 0.013032002 -0.0071997656 0.035669375 -0.062361013 -0.025320435
-0.027947668 0.017616192 -0.033899304 0.013206385 -0.027643679 -0.0017206372 -0.055892576 0.010090218
0.0093306415 -0.026199833 -0.009652565 -0.0037591981 -0.019941373 -0.015484035 -0.02895754 0.04917924
0.0068322173 -0.011266763 -0.06172088 -0.048107754 -0.009472047 -0.011594239 0.049861316 -0.008051161
0.0044875923 0.024287332 -0.012007791 0.016415074 0.027002793 -0.013956774 0.08089028 -0.035281233
-0.0013306682 -0.017384075 -0.0628779 -0.0050914376 0.0049679405 -0.02204099 -0.0041231196 0.00661058
-0.015967391 0.0636564 0.005425655 -0.09688736 0.004382074 -0.009318054 0.031438082 -0.005062612
-0.004697044 0.01979345 0.012819488 -0.044564717 0.003918713 -0.0818536 0.048784167 0.043052148
0.069724575 -0.021920756 -0.013521321 0.029558975 0.0156904 -0.007937179 -0.040751506 -0.018674018
0.0068637147 -0.03389769 0.011915944 -0.039848913 0.001355437 0.018953923 0.030765945 -0.024679692
-0.043634746 0.009747569 -0.053074583 0.0038481466 0.033086304 0.038412757 0.04278088 -0.0009995515
-0.02609312 -0.023832843 0.015003794 -0.006105308 0.018183166 -0.055396214 0.0048635122 -0.01142154

layers.0.bias f4 [8]
00000000: 0000 0000 b606 abb9 0000 0000 7968 ce3a
00000010: 7e15 e03a 8cdb 17ba 0000 0000 6fd5 d53a
0.0 -0.00032620662 0.0 0.0015747688 0.0017096249 -0.0005792908 0.0 0.0016314219

layers.2.weight f4 [8, 8]
00000000: 2439 0abc d8ce d3bc f2ba e6bc c778 c0bc
00000010: c30a dcbc 83bf 57bc 3e9e 84bc 4309 62bd
00000020: e7bb 00bc 5c27 0abc 35fc 8b3c 08ee a9bc
00000030: cb17 98bc a37d 383c 0cc9 75bb 50a7 3abc
00000040: 84be 8cbd 2913 173c 257a 7ebc 2e18 9d3c
00000050: a361 a33c 9d85 773c cbc1 5dbc 70bc 5a3b
00000060: ff3f 9b3c 9a9b c13a 8e82 21bc 3da5 99bc
00000070: 1b4a 3bbd f50e 1e3c ea2b 9a3c 41dc d4bc
00000080: dcb1 16bc 0319 de3c 7cf9 183d 8cb4 8abc
00000090: 2360 14bb 5e02 9cbd f54e b73c 0bf1 c6bc
000000a0: 6561 35bd b4bb 22bd dfd6 eb3c 0d85 c4bc
000000b0: 01c8 603d f484 62bc d4b7 223d 3810 813c
000000c0: 9d4c 10bd eab7 af3b a1d3 84bc 059b cdbc
000000d0: cdda adbc b8e1 82bc 97a7 ba3c c8e3 7abd
000000e0: 0fb7 70bb 03e0 963c bfb5 173b 7f6e 283d
000000f0: 251c 61bc 5536 6cbd 755d ca3b 76ff 04bd
-0.008436475 -0.025855467 -0.028165314 -0.023495091 -0.0268606 -0.013168219 -0.016188737 -0.055184614
-0.007857299 -0.008432236 0.017088035 -0.020743385 -0.018566033 0.011260423 -0.0037503866 -0.0113924295
-0.068722755 0.009220877 -0.015532051 0.019176569 0.019944018 0.0151075395 -0.013534973 0.0033376478
0.018951414 0.0014771104 -0.009857787 -0.01875555 -0.04572497 0.009647121 0.018819768 -0.025983931
-0.009197678 0.027111536 0.0373473 -0.016931795 -0.002264031 -0.07617639 0.022376517 -0.02428486
-0.044282336 -0.03972979 0.028788982 -0.023989225 0.05487824 -0.013825644 0.039726093 0.015754804
-0.035229314 0.0053625004 -0.016214194 -0.025098333 -0.021222496 -0.015976772 0.022784991 -0.061252385
-0.0036730205 0.018417364 0.00231491 0.041121002 -0.01373962 -0.057669003 0.0061756917 -0.03247019

layers.2.bias f4 [8]
00000000: 6041 cdba 0a55 f63a 580b d23a 162c daba
00000010: b831 dd3a e44a b0ba 06cc d8ba 9bea c2ba
-0.0015659742 0.0018793654 0.0016025109 -0.0016645219 0.0016875779 -0.0013450054 -0.0016540296 -0.0014870943

layers.0.weight f4 [8, 13]
00000000: bc9e e2bc 50a2 b83c d604 bf3b b6ba 453d
00000010: f217 843d 3ad5 c9bb b916 97ba f3ec 0fbd
00000020: ad25 65ba 209f c4bc 8a5d 55bd 0702 633d
00000030: 6228 93bc a361 c3bb 7dc9 8bbc e73d b23c
00000040: e263 763c 0200 3cb8 2612 2cbd 0645 a5bc
00000050: 20c4 e7bc d73f 3bbc 84d2 ae3b bbe3 5d3d
00000060: ef2b 6e3d 99dd 903c df9d cbbc 4999 c13d
00000070: a6a4 fc3c ff58 b63c 63e9 19bd 29de c03c
00000080: eccc f639 8381 393d a8a4 fabc dbdb 06bb
00000090: e0ed 1cbd e90e 2f3c a532 eabc d83a 0cbd
000000a0: 4bde 2f3c 0509 293d 77f6 62bc 7c5f 273c
000000b0: 5f85 053d d1df 6fbc b89f aebc 682d 2fbd
000000c0: ae93 31bb b2ff dfbb faf2 873c 2c4d 673d
000000d0: ec63 86bc b975 b33b 1579 aebd 8c73 94bc
000000e0: e5dc 16bc fc7a 973c f2eb 08bb 7baf 8bbd
000000f0: cbb7 a4bc 3271 adbd f574 203d c138 fe3b
00000100: 445c d03c 5c82 a0b9 f4e9 473c 665f ffbc
00000110: c261 9abc 5ee3 7dbd 77e4 5ebd 7115 08bc
00000120: 2fe9 a03c 3db3 c53c 07fd 9f3a e5a8 f83b
00000130: 3578 a4bc 5baf b23c a97f 54bd e6e2 a53b
00000140: ce1d 863b b3a3 2fbc 0635 9dbb 5c46 84bc
00000150: 8de4 a03c 9765 83bc b7a3 d2bc 14c1 a83c
00000160: 1db7 da3c 0a84 943b 15af a2bc a807 f13a
00000170: 48c4 003d cf83 5f3c 8f66 c73b b37e 7bbd
00000180: 36b7 e03b 4648 cfbb 1732 543b 6475 5f3b
00000190: 7d9c a1bb 6cf7 b0bb 536b ce3c 0000 d2bb
-0.027663581 0.022538334 0.005829434 0.048273765 0.0644988 -0.006159452 -0.0011527158 -0.03513808
-0.0008741271 -0.024001658 -0.05209116 0.055421855 -0.017963592 -0.005962567 -0.01706385 0.021758033
0.015038462 -4.48227e-05 -0.042009495 -0.020174515 -0.028291762 -0.011428795 0.005335154 0.05417226
0.058147367 0.017683791 -0.024855552 0.09453065 0.03084023 0.022259234 -0.03757609 0.023543434
0.00047073455 0.045289528 -0.030596092 -0.0020577821 -0.038312793 0.010684707 -0.028588602 -0.034235805
0.010734151 0.041268367 -0.013852707 0.010215636 0.032597896 -0.014640764 -0.021316394 -0.042767912
-0.002709608 -0.006835901 0.016595352 0.05647008 -0.016405068 0.00547668 -0.08519188 -0.018121503
-0.009207939 0.01849126 -0.0020892587 -0.068205796 -0.02010717 -0.08468856 0.03917404 0.0077582304
0.02543462 -0.00030614703 0.012201775 -0.03117342 -0.018845443 -0.061984412 -0.0544171 -0.008305893
0.01964244 0.024133319 0.0012206145 0.007588493 -0.02007685 0.021812132 -0.05187956 0.005062449
0.0040929085 -0.010720181 -0.0047975807 -0.016146831 0.019640232 -0.016039653 -0.025712831 0.02059988
0.026698643 0.004532342 -0.019858876 0.0018389123 0.03143719 0.013642265 0.006085224 -0.061400127
0.006857778 -0.0063257543 0.0032378489 0.003409707 -0.004931985 -0.0054005887 0.02519766 -0.0064086914

layers.0.bias f4 [8]
00000000: 0733 ecba 0000 0000 e23e eeba b82a 0dba
00000010: 0000 0000 2b02 a939 0000 0000 0b7c d33a
-0.0018020578 0.0 -0.00181767 -0.0005385089 0.0 0.00032235807 0.0 0.001613499

layers.2.weight f4 [8, 8]
00000000: f9d6 cd3b b438 f03b f8ff 47bd 4e01 2dbd
00000010: 57f2 ebbc 3b99 d03b 7b67 a1bc 4e4c 753c
00000020: c918 c03c 76ae 4abb 44e9 91bb 5443 e8bc
00000030: ef10 7fbd 27a9 99bc 2020 aabc e637 453d
00000040: 226f e0bc a154 a53c 9fa7 d33c b759 0fb9
00000050: 7332 823c 7252 5b3c 26f1 043d 2bcf 1ebd
00000060: 930f 883d e0aa 5c3c 5776 eebc dde9 4f38
00000070: 750f 9abc 3c79 703d f3b1 a8bc 4e89 babb
00000080: edcc 973b aa97 92bb 4988 713d 13e4 44bc
00000090: 8f0b 00bc f0bb e73c 83e0 5ebc 0e1b 54bd
000000a0: 85af 9f3c 32b9 bdbd c6bf a8bc 04ea 90bc
000000b0: c0ed 9b3c e2b8 93bb ee5f 033d eba7 debc
000000c0: 3be7 78bb e5e0 223d 3ac5 c2ba 2fa0 08bd
000000d0: 565e b5ba 0cbc ee3b 7959 90b9 09f6 6c3d
000000e0: 1a3c 94bc ee38 cb3c e9ad a5bb 8bfc 013d
000000f0: fd48 853c 11b1 5f3a d32f d33c 1b34 3cbc
0.0062817303 0.0073309783 -0.048828095 -0.042237572 -0.02880208 0.0063659227 -0.019702664 0.014971806
0.023449318 -0.003092674 -0.0044528563 -0.028352417 -0.06227201 -0.018757416 -0.020767272 0.048149012
-0.027396742 0.020181956 0.025836764 -0.00013670964 0.015893197 0.013386356 0.03245654 -0.03877179
0.066435955 0.013468474 -0.029109163 4.9570448e-05 -0.018806199 0.058709368 -0.020592665 -0.0056926375
0.0046325834 -0.004473646 0.058967862 -0.012017268 -0.007815256 0.028287858 -0.013603332 -0.051783614
0.019492874 -0.09263839 -0.020599257 -0.017689712 0.019034266 -0.0045081237 0.032073908 -0.027179679
-0.003797962 0.039765257 -0.0014859803 -0.033355888 -0.0013837318 0.0072856005 -0.00027532483 0.057851825
-0.018095065 0.02480742 -0.005056132 0.031734984 0.016270155 0.000853316 0.02577964 -0.011487032

layers.2.bias f4 [8]
00000000: 755e e23a f5e8 1fba 2a61 beba bcfd f1ba
00000010: d1d6 f6ba f8f8 e33a c8eb f2ba af77 8eba
0.0017270582 -0.0006100082 -0.0014524807 -0.001846246 -0.0018832331 0.0017392924 -0.0018533403 -0.0010869409

exp_avg f4 [8, 13]
00000000: d295 a2b8 a079 feb8 5da9 f5b7 bc40 aab9
00000010: a043 6bb9 202c 87b9 d763 3cb9 1f89 64b6
00000020: e10c 90b8 12d8 77b6 9144 d5b6 c538 b0b5
00000030: d94a 05b8 0000 0000 0000 0000 0000 0000
00000040: 0000 0000 0000 0000 0000 0000 0000 0000
00000050: 0000 0000 0000 0000 0000 0000 0000 0000
00000060: 0000 0000 0000 0000 0000 0000 0000 0000
00000070: 0000 0000 0000 0000 0000 0000 0000 0000
00000080: 0000 0000 0000 0000 0000 0000 0000 0000
00000090: 0000 0000 0000 0000 0000 0000 0000 0000
000000a0: 0000 0000 0000 0000 0000 0000 0000 0000
000000b0: 0000 0000 0000 0000 0000 0000 0000 0000
000000c0: 0000 0000 0000 0000 0000 0000 0000 0000
000000d0: 28b2 d8bc b0d0 6fbd 62f0 72bc b89e e9bd
000000e0: 8731 45bd bf9a 8fbd f6d5 d8bc 6df4 96ba
000000f0: 4e9e 1bbc 5adb 78ba 98fe 05bb 7c29 e9ba
00000100: 96c4 34bc 4d97 c1bd 6c88 7abe 57bd 76bd
00000110: 1473 a7be 626d 3ebe a595 6ebe 238c efbd
00000120: 579e 82bb eb7c 4abd eead 63bb 17fb 07bc
00000130: 078d bcbb d631 02bd d8f1 edbd e55e a7be
00000140: b0ef a5bd 957e bcbe ea54 5fbe 7d46 89be
00000150: 4a15 0cbe d7e1 9ebb 8891 74bd d42e 83bb
00000160: a1b8 31bc d5c8 f1bb 5ecb 0ebd 0000 0000
00000170: 0000 0000 0000 0000 0000 0000 0000 0000
00000180: 0000 0000 0000 0000 0000 0000 0000 0000
00000190: 0000 0000 0000 0000 0000 0000 0000 0000
-7.752668e-05 -0.00012134318 -2.9285142e-05 -0.00032473158 -0.00022436539 -0.00025782082 -0.0001796627 -3.4054463e-06
-6.868854e-05 -3.6931638e-06 -6.355877e-06 -1.3129544e-06 -3.177938e-05 0.0 0.0 0.0
0.0 0.0 0.0 0.0 0.0 0.0 0.0 0.0
0.0 0.0 0.0 0.0 0.0 0.0 0.0 0.0
0.0 0.0 0.0 0.0 0.0 0.0 0.0 0.0
0.0 0.0 0.0 0.0 0.0 0.0 0.0 0.0
0.0 0.0 0.0 0.0 -0.026452139 -0.05854863 -0.01482782 -0.11407226
-0.048142936 -0.07011937 -0.026469212 -0.0011516936 -0.009498192 -0.0009493135 -0.002044594 -0.0017788853
-0.011033198 -0.094526865 -0.24466103 -0.060239162 -0.32704985 -0.18596414 -0.23299272 -0.11696651
-0.0039861607 -0.049435537 -0.0034741121 -0.008299611 -0.0057541165 -0.03178581 -0.11618394 -0.32689586
-0.081023574 -0.36815324 -0.21809736 -0.2681159 -0.13679996 -0.0048486996 -0.059709102 -0.004003385
-0.010847242 -0.0073786774 -0.034861915 0.0 0.0 0.0 0.0 0.0
0.0 0.0 0.0 0.0 0.0 0.0 0.0 0.0
