MGDML-CNN/MGDML-CNN/Checkpoint/models/ckpt_best.pth (torch_old, 285085 bytes, 1116 tensors)

layers.0.weight f4 [6, 8]
00000000: 3fc2 583c fbf6 c23c 03ca 853c 0dae 95bc
00000010: 51f3 e23c 1655 85bc 48f7 97bc 082d b63c
00000020: 95c2 da3c 2502 463c 6795 07bb fb33 46bb
00000030: e033 2cbd 352b 4bbc 8031 f2bc f9b2 b9bc
00000040: a027 8f3c 249a 37bc a0a7 d23c 2bd6 853c
00000050: f083 863b 1bec c73b 328b 2f3c 964e 0dbc
00000060: 008f 513d 59f8 98bb 2cca 8db9 4b6b 183d
00000070: 2d3d 22bd 0f58 133d 8661 053b 27cb de3b
00000080: 4869 693c 1b89 11bd 40e0 e73b 5689 c43c
00000090: e89a c6bb 7f54 10bd 7002 503c 5bcb 83bc
000000a0: 82fc 03bd 9d53 19bd f5f0 313c 8c79 583c
000000b0: 0705 3c3d 0f23 5d3c e959 0c3d b0fd 12bd
0.013229906 0.02379941 0.016331678 -0.01827147 0.027703913 -0.016275924 -0.01855053 0.02223827
0.026704112 0.012085472 -0.0020688416 -0.0030243385 -0.04204166 -0.012400438 -0.029564619 -0.022668349
0.01747495 -0.011206184 0.025714695 0.016337475 0.0041050836 0.006101144 0.010714339 -0.008624693
0.051161766 -0.004668277 -0.00027044246 0.037211698 -0.039609123 0.03597265 0.0020352318 0.00679912
0.014246292 -0.035531145 0.007076293 0.023991268 -0.0060609467 -0.03523683 0.012695894 -0.016088178
-0.032223232 -0.037433255 0.010860671 0.013212573 0.045903232 0.013497128 0.034265433 -0.035886467

layers.0.bias f4 [6]
00000000: cd30 8635 0000 0000 de4e 82b5 dc35 86b5
00000010: 001e 86b5 6f35 86b5
9.997981e-07 0.0 -9.708708e-07 -9.999453e-07 -9.992509e-07 -9.999329e-07

layers.2.weight f4 [6, 6]
00000000: ab5d dfbc 3817 a1bc 0599 f73c d34f 523c
00000010: 2eff 1a3c ef74 0cbc 22a8 343c 7085 fdbc
00000020: 34c2 293c 13b4 0b3b 016b b03b b20a d93c
00000030: a107 0f3d 85f5 173d b97a 67bc f078 513d
00000040: 66d5 083c e55f 8bbb 7da0 89bc a7a1 09bc
00000050: 31f2 9dbc 976d 393b 3094 56bb 29cc eabb
00000060: a9f5 9bba c023 4cbd 66bc 9e3b d0e9 bc3b
00000070: 0e3c 073b 1a46 b43c 09e4 dfbb 4636 9b3c
00000080: 09f1 4b3c 38d4 12bc 8a2b bbbb 4a4c fe3b
-0.027266344 -0.019664392 0.030224333 0.012836414 0.009460254 -0.008572801 0.011026414 -0.030947417
0.010361243 0.002131705 0.0053838496 0.026494358 0.034919385 0.03709938 -0.01412838 0.051140726
0.008351659 -0.004253375 -0.01680016 -0.008400357 -0.019280525 0.002829408 -0.0032742135 -0.007165451
-0.0011898774 -0.04983878 0.004844236 0.0057651773 0.002063516 0.022006083 -0.006832604 0.018946778
0.012447604 -0.00896173 -0.0057119774 0.007760559

layers.2.bias f4 [6]
00000000: 9e37 86b5 9137 86b5 9134 86b5 9a37 86b5
00000010: b337 86b5 b137 8635
-9.999965e-07 -9.99995e-07 -9.999077e-07 -9.99996e-07 -9.999989e-07 9.999986e-07

layers.0.weight f4 [6, 8]
00000000: d5fb febc f63f b0bc 5264 8fbc eaee 1abc
00000010: 6ac4 76bc 7886 0dbc 0e51 5b3c 1929 553c
00000020: bb12 813c 2537 e03c 9c62 8bbc 70f4 273c
00000030: 0446 da3b 7f83 b53c 5f4e 733b 5c25 b5bb
00000040: 7e69 48bc a8b2 853c 0659 a23b f971 fdbb
00000050: ba5a 83bb 8a38 89bc 3d42 febc 2d1f 97ba
00000060: a84c c43c 700c 3bbd b0f8 a5bc ec7a 91bc
00000070: 7f39 3c3b 660c 853b 53ad ac3c 0085 2c3b
00000080: f7bf e53c db9e 1e3c e363 66bc 2d77 87bc
00000090: ce95 043b afd9 7f3b b245 c1bc ff50 ecbc
000000a0: c2b0 67bc 7378 763c a0e3 c8b9 3dc7 b43c
000000b0: 64e9 2f3c d9a5 a03c 0e9f c3bc 892c 21bc
-0.031125942 -0.021514874 -0.017503891 -0.009456376 -0.015061477 -0.008638017 0.013386024 0.013010287
0.015756002 0.027370045 -0.017014794 0.01025115 0.0066611785 0.022157429 0.003712557 -0.005528135
-0.012232183 0.016320542 0.00495446 -0.007734534 -0.004008618 -0.016750593 -0.031037444 -0.0011529677
0.023962334 -0.04566616 -0.020260185 -0.017758809 0.0028720794 0.004060316 0.021078741 0.0026324391
0.028045638 0.009681429 -0.014061901 -0.01653632 0.0020230892 0.0039039662 -0.023592804 -0.028847216
-0.014141263 0.015043366 -0.00038316566 0.02206766 0.010736797 0.019610332 -0.023879554 -0.009837278

layers.0.bias f4 [6]
00000000: 0000 0000 f426 86b5 0000 0000 830f 86b5
00000010: 642b 86b5 eb35 8635
0.0 -9.995115e-07 0.0 -9.988293e-07 -9.996406e-07 9.99947e-07

layers.2.weight f4 [6, 6]
00000000: 3cbc 6c3c 1bff 473b 6e00 3e3b d70a 40bd
00000010: 1562 17bc 6f9a f1bb 5b55 f13b 29e5 1e3c
00000020: a24e 823b 3845 323c 2b57 02bc 5209 1ebd
00000030: 51c6 973c aea6 953c 0677 81bc a312 3fbc
00000040: 1a24 80bc 2443 e9bc c7d0 033d aaa3 2bba
00000050: 810f fd3b 559a ab3c 3315 70bc 4f32 96bc
00000060: 615f 87bc 2d91 91bb ad0a 13bd f52a 6f3c
00000070: 59c4 7f3c 25a2 34bd ac58 f5bc 8cd3 93bc
00000080: 5e7b 423c 7e33 d93b 8389 adbc 40c4 4dbc
0.014449175 0.0030517045 0.0028991955 -0.046885338 -0.009239693 -0.0073731462 0.0073649115 0.009698191
0.003976659 0.010880761 -0.007955353 -0.038583107 0.018527182 0.018267956 -0.015803825 -0.011662158
-0.015642215 -0.028474398 0.032181527 -0.000654752 0.0077227955 0.020947615 -0.014653492 -0.018334536
-0.016524972 -0.004442355 -0.035898853 0.014597644 0.015610778 -0.044099946 -0.029949509 -0.01804521
0.011870233 0.006628453 -0.021183735 -0.012558997

layers.2.bias f4 [6]
00000000: 6d37 86b5 9037 86b5 a137 86b5 a837 8635
00000010: ae37 86b5 9137 86b5
-9.999909e-07 -9.999949e-07 -9.999968e-07 9.999976e-07 -9.999983e-07 -9.99995e-07

layers.0.weight f4 [6, 8]
00000000: 5050 8c3c b7c4 8ab8 d4ce 813c 09d9 ddbb
00000010: 6ae0 ea3c 00b5 cc3b 922d ca3c aeb4 c7ba
00000020: 7e37 d8bc 5f0a 073d 7182 d23c cfae 85bc
00000030: 9050 b13c e348 703b 8954 043c b7ab 033d
00000040: f940 6a3c 4115 023c 2f9f 7c3b 0ac0 e03b
00000050: ba06 e83c 8f3d 1b3c d2ee d83a 6988 d5bc
00000060: 709e 6d3c 960c 33bc ff79 83bc 3df3 c239
00000070: 1af0 b93c 20d9 8d3c 3885 4f3c d8b3 30bc
00000080: 7468 41ba 9082 6e3b c1a2 cfbc 64b9 42bc
00000090: eea2 42bb 9db5 a5bb 376e e2bc 5edf 993c
000000a0: dbe8 013b 5bd3 213c 6edc a3bc 87cd 5fbc
000000b0: 0782 88bc abe1 dfbb 3d57 6b3c ba2c 843c
0.01712814 -6.616994e-05 0.015845694 -0.0067702574 0.028671462 0.006247163 0.024679933 -0.0015236342
-0.026393648 0.032968875 0.025696965 -0.016318707 0.02164486 0.0036664538 0.008076795 0.032146182
0.014297717 0.007939638 0.003854703 0.0068588303 0.02832352 0.009475126 0.0016550666 -0.026066022
0.0145031065 -0.010928294 -0.016049383 0.0003718379 0.022697497 0.017315447 0.012666039 -0.010785066
-0.00073779305 0.003639374 -0.025346162 -0.011885021 -0.0029699164 -0.0050570504 -0.027640445 0.018783268
0.001982263 0.009877051 -0.02000257 -0.013659841 -0.016663564 -0.0068323216 0.014364061 0.016134609

layers.0.bias f4 [6]
00000000: 5d33 86b5 fe33 86b5 aa34 8635 fc36 86b5
00000010: 0000 0000 f923 8635
-9.998727e-07 -9.99891e-07 9.999105e-07 -9.99978e-07 0.0 9.994247e-07

layers.2.weight f4 [6, 6]
00000000: e579 113c 2dd9 1ebb a7ae f63b 04e2 383d
00000010: b10f 19bc b374 2e3b a048 77bc 3e6f 5cbb
00000020: 42dc 123d 54ad bebc c693 1b3c 06d5 26bc
00000030: 730c 093d 58b5 15bc cf9a d4ba 50f7 8f3c
00000040: 8f52 e5bb 3d95 99bb dca1 32bc 1b56 b43b
00000050: 8156 c43b 6deb 01bc 13fb 2dbc a54c 993c
00000060: c260 91bc 6e96 2d3c 94dd af3b 356b e53b
00000070: 772a d9bb d79f e4bb 10a3 7b3c 641c dabb
00000080: 7d47 96bc 2f2d 893c 9bf1 f43c 2d09 88bc
0.00887916 -0.0024238334 0.0075281444 0.04513742 -0.00934212 0.002661985 -0.015092999 -0.0033635641
0.035854585 -0.023276009 0.009495681 -0.010182625 0.033459138 -0.009137474 -0.0016220453 0.017573982
-0.006998367 -0.00468698 -0.010902848 0.0055034286 0.0059917574 -0.007929665 -0.010618943 0.018713305
-0.017746333 0.010594947 0.0053669903 0.0070013055 -0.0066273767 -0.006977062 0.015358701 -0.0066562165
-0.018344635 0.016745178 0.029900363 -0.016605938

layers.2.bias f4 [6]
00000000: 9e37 86b5 af37 8635 a937 86b5 b537 8635
00000010: b637 86b5 b037 8635
-9.999965e-07 9.999984e-07 -9.999977e-07 9.999991e-07 -9.999992e-07 9.999985e-07

layers.0.weight f4 [6, 8]
00000000: e49c a93c aded 55bb 0c0d a93b bd89 873c
00000010: 00d3 9ebb dcff 6bbb 3903 9d3c fbc8 f73b
00000020: fca0 773c 9b1d 683b 80ca ea3c ca09 be3a
00000030: 0273 7cbc 81a1 153c ed72 d7bc 7e30 26bc
00000040: 6273 0d3c f396 253c 6ac7 65bc 3789 efbc
00000050: 2487 a83c 3376 793a 1ded 073c aa43 5dbd
00000060: 694c 17bc 8ffc 163c f297 2f3c d1ca a43c
00000070: 4f37 27bc 6b0d 903c d251 113d 5715 2ebb
00000080: 3370 f3ba d57c 773c 3ac7 86bc cc65 99bb
00000090: 20e5 1fbd 49fc 54bc b7e4 dc3c 4521 cb3b
000000a0: a685 a0bc b2cc d9bc 3d43 a1bc 10fe 4d3c
000000b0: 97c9 08bc 7ecb 0b3d e25e a4bb 4639 30ba
0.020704694 -0.0032642887 0.005159026 0.01654517 -0.0048469305 -0.0036010658 0.019166576 0.0075618005
0.015114065 0.0035418037 0.028661013 0.0014498767 -0.015408279 0.009132744 -0.026299918 -0.010143397
0.008633466 0.01010679 -0.014024595 -0.029240234 0.020572253 0.0009516209 0.008296278 -0.054019608
-0.009234526 0.009215488 0.010717379 0.020116242 -0.010206058 0.017584523 0.03547842 -0.0026563013
-0.0018572867 0.015105446 -0.01645242 -0.0046813246 -0.03903687 -0.012999603 0.026964528 0.0061990344
-0.019594979 -0.026586864 -0.019685382 0.01257278 -0.008348844 0.034129612 -0.0050161937 -0.00067224016

layers.0.bias f4 [6]
00000000: 4634 86b5 4836 8635 f235 86b5 6135 8635
00000010: 0000 0000 0000 0000
-9.998992e-07 9.999576e-07 -9.999478e-07 9.999313e-07 0.0 0.0

layers.2.weight f4 [6, 6]
00000000: 1542 a43c a081 e43b 62ee 09bc e961 53bc
00000010: 0041 013d 3ff0 0c3b 02fb b43c 49d5 433c
00000020: a14f 033c 4e19 1f3c 4781 0dbd 4ebd fdbc
00000030: c614 513c 0ebd 24bc 6a65 a3bc 9ce9 38bc
00000040: 6b05 d23c 6619 103c 0394 1ebc 8649 0cbd
00000050: f1c9 98bc 522a c23a 6e78 8a3b 9ef3 093a
00000060: 0de3 e8b9 6424 f7bc 396b 5fbd c5d1 8cbc
00000070: 1424 19bc 9eef fd3c fb86 133c b988 d43c
00000080: 9157 c43b edbd a7bc 4140 a83c 0c43 7cbb
0.020051042 0.0069734603 -0.008418651 -0.012901762 0.03155613 0.0021505503 0.022092346 0.011952707
0.0080145905 0.009710623 -0.034547117 -0.030974057 0.0127613 -0.01005484 -0.019945819 -0.011286166
0.02563735 0.008795118 -0.009678843 -0.034249805 -0.01865098 0.0014813638 0.004225782 0.0005262437
-0.00044419654 -0.03016872 -0.054545615 -0.01718987 -0.009346981 0.030998047 0.00900435 0.0259441
0.005991884 -0.020476306 0.020538451 -0.0038492111

layers.2.bias f4 [6]
00000000: b137 86b5 ab37 8635 af37 86b5 d536 86b5
00000010: 8f37 8635 8b37 8635
-9.999986e-07 9.99998e-07 -9.999984e-07 -9.999736e-07 9.999948e-07 9.999943e-07

layers.0.weight f4 [6, 8]
00000000: 231d 95bc aa80 3abb 44ed c33b fabe ee3c
00000010: 3a02 973b cbe3 41bb 5a55 50bc eeb2 e73b
00000020: 573d 28ba 353d 3abc 4260 e9bc 3b08 d9bc
00000030: b294 2abd 9c2f 4fbc f103 033d 2374 1e3d
00000040: 0053 423c 5f0a 153d 350e 90bc 5b07 c1bc
00000050: a10c a43b 4617 f13b 3913 27bc 5d1c 02bb
00000060: ac88 26bc 231f cb3c c4db 0a3c 97ea ae3b
00000070: c55b c93a cdc1 b0bc e0fc 813c e628 4abc
00000080: 8c9f f8bc 5d0f a6bc 2e72 e13c 3de0 eb3c
00000090: dd25 38bd b06a d83c 05a8 30bc 777c ff3b
000000a0: 66bb 8abc 3d43 30bd 501d a23b 19fb ecbc
000000b0: a202 c7bc a422 bd3b 597b 8bbc 3aeb 8dbc
-0.01820237 -0.0028458037 0.005979212 0.0291438 0.0046084197 -0.0029585238 -0.012715662 0.0070708906
-0.0006417832 -0.011367132 -0.028488282 -0.026493182 -0.041645713 -0.012645628 0.03198618 0.038684975
0.011860609 0.036386844 -0.0175849 -0.023563078 0.0050063883 0.0073575107 -0.010197454 -0.0019853332
-0.010164421 0.02479512 0.008475248 0.005338024 0.0015362432 -0.021576786 0.01586765 -0.0123388525
-0.030349515 -0.020270998 0.027520265 0.028793449 -0.044957984 0.02641806 -0.0107822465 0.00779682
-0.016935062 -0.043032873 0.004947342 -0.028928326 -0.024293248 0.0057719517 -0.01702659 -0.017324079

layers.0.bias f4 [6]
00000000: 4b2d 8635 0000 0000 cc33 86b5 7036 8635
00000010: 0000 0000 0000 0000
9.99696e-07 0.0 -9.998853e-07 9.999621e-07 0.0 0.0

layers.2.weight f4 [6, 6]
00000000: e703 bbbc 9340 1cbd 38bc c3bc f06d 00bb
00000010: 10c6 523c 0024 833c 6f0f 063c c6c3 c53b
00000020: fa65 a5bc 90b2 ae3c a2df 0bba c081 06bc
00000030: c530 a13c 1ebd 15bd dcc0 57bc 3037 febc
00000040: b49b a1bd c02c ba3c dce2 143c 2bba aabc
00000050: 5a74 aabb d2b2 debc f3b0 c6bc 441c 993c
00000060: dc51 dfbc 92bc 34bc bb73 a1bb ced2 1d3c
00000070: c97f 643d f7d3 053d a5ab 9d3c 82d9 a63b
00000080: bfb4 18bd a850 803c cc7a 1dbd 1c12 abbc
-0.02282901 -0.03814752 -0.02389346 -0.0019596778 0.012864605 0.016008377 0.008182391 0.006035301
-0.020190228 0.02132538 -0.0005335753 -0.008209646 0.019676575 -0.03655731 -0.01316854 -0.031032175
-0.07891026 0.022726417 0.009087291 -0.020840725 -0.0052018585 -0.027184878 -0.024254298 0.018690236
-0.027260713 -0.011031287 -0.004927126 0.009632779 0.055785928 0.03267285 0.019246886 0.005091847
-0.037281748 0.01566346 -0.038447186 -0.020882659

layers.2.bias f4 [6]
00000000: 9937 86b5 a637 8635 af37 86b5 2237 8635
00000010: 9737 86b5 3037 8635
-9.999959e-07 9.999974e-07 -9.999984e-07 9.999824e-07 -9.999957e-07 9.99984e-07

layers.0.weight f4 [6, 8]
00000000: 8599 983c db7e 4cbd cec9 813c 93f5 b53c
00000010: b20c 363b c775 ba3c 826b 253c 9db1 bbbc
00000020: ac11 72bb b078 f4bc 6afa 313c f6de 2a3c
00000030: 7809 593d fce8 63bc 2e33 2cbd c837 f6bc
00000040: 7c51 27bb cec5 76bb 3f66 043d cb89 b2bc
00000050: 2802 a2b7 2138 393c 77ac 9bb9 fe91 6e3b
00000060: aebd 1fbc 96e4 22bc 2caf f03c 85ca 443a
00000070: 0f8f ac3a d099 95bc 2c2c a0bc 27b7 c0bc
00000080: 2bc3 dd3c 5644 073d 3853 bab9 2b04 c9bc
00000090: 6678 ff3b 3190 af3c a9de 913c e5ae 14bd
000000a0: f6e1 2a3d 2bdd 093b 17ba d039 38e1 5ebc
000000b0: af9b 0ebc 8558 6dbc 487b 80bc 7262 63bd
0.018627891 -0.049925666 0.015843298 0.022211825 0.0027778563 0.022761239 0.010096433 -0.022911841
-0.0036936803 -0.029842705 0.010862926 0.010429135 0.052987546 -0.013910528 -0.042040996 -0.030055895
-0.0025530746 -0.0037654522 0.032324072 -0.02179422 -1.9312909e-05 0.011304886 -0.000296924 0.0036402936
-0.009749813 -0.009942194 0.029380403 0.00075069844 0.0013165193 -0.01826182 -0.019552313 -0.023524834
0.027070602 0.033024155 -0.00035538687 -0.02453812 0.007796335 0.02143106 0.017806368 -0.036299605
0.0417194 0.0021036367 0.000398115 -0.013603501 -0.00870411 -0.014486437 -0.015683785 -0.055513807

layers.0.bias f4 [6]
00000000: f22c 86b5 8534 86b5 c731 86b5 0000 0000
00000010: c535 86b5 cb26 8635
-9.996859e-07 -9.999063e-07 -9.998265e-07 0.0 -9.999427e-07 9.995068e-07

layers.2.weight f4 [6, 6]
00000000: 8dd7 993c 01a4 8a3c cf15 b83b 42e3 d5bc
00000010: 8753 353c 2267 803b bc98 a5bc 2173 503c
00000020: e9a5 5d3a aa67 2fbc 211c 583c 226f e03b
00000030: 0d97 4bbb 037f f2bc b4f5 ff3c 9dab 32bd
00000040: 8ae9 54bb 260a 113d 002c 443d 5ba6 afbc
00000050: a3a7 f03b f3c3 013d 9eb6 3cbd c34b 473b
00000060: 1e59 143b 5fea f0bc f1af 32bc 850b 013b
00000070: a158 9e3b 66ce 3a3c 3cb5 66b9 4071 5c3c
00000080: 4613 8dbc d76c 303d 598a b0b9 d131 e83c
0.01877954 0.016923906 0.005617834 -0.026109342 0.011067278 0.0039185444 -0.020214431 0.012722761
0.00084552035 -0.010705868 0.0131903 0.0068491856 -0.0031065375 -0.02960158 0.03124509 -0.043620694
-0.0032487833 0.03541007 0.047893524 -0.02144163 0.0073442026 0.031681012 -0.046072595 0.0030410148
0.0022636126 -0.029408632 -0.0109062055 0.0019690704 0.0048323427 0.011401748 -0.00022002024 0.013454735
-0.017221104 0.043072548 -0.00033672413 0.028344067

layers.2.bias f4 [6]
00000000: af37 86b5 4b37 86b5 6f37 86b5 9b37 8635
00000010: ae37 8635 4737 86b5
-9.999984e-07 -9.99987e-07 -9.999911e-07 9.999961e-07 9.999983e-07 -9.999866e-07

layers.0.weight f4 [6, 8]
00000000: 7ff7 19bd d28f 0dbd 1d60 44bc b9d5 75bc
00000010: f65a 2e3a d0d9 ebbb 907d bf3c 8729 26bc
00000020: 2f65 caba b5aa 1a39 0e10 eabb 00cf 363b
00000030: f4f3 36bc 9b28 59bb 50d5 ebbc e8db 05bc
00000040: 9c3b bc3c 27bb cabc 0a59 153d c744 1c39
00000050: 190c 06bd 96a5 b0bc 8d34 46bc 7fc4 89bc
00000060: 3ca8 853b 3e63 03bc 02b5 26bc 7479 d63c
00000070: eb75 af3c 005c 873b 19e7 a6bc 74c7 2abd
00000080: 3e2e dcbc 826f 013b 8451 85bc 82da 00bd
00000090: f5be 95bc f5d0 673b 035d 94bc c31b f33b
000000a0: 94fc c8bb abc0 fcbc 7dfc 033b 9c3d a8ba
000000b0: d960 55b9 8d97 15bd ade3 94bb 124f 293b
-0.037589546 -0.034560986 -0.011985806 -0.015004569 0.00066511275 -0.007197596 0.023375303 -0.010141737
-0.0015441532 0.00014750178 -0.007143027 0.0027894378 -0.011166561 -0.0033135775 -0.028788239 -0.0081701055
0.022977643 -0.024747444 0.036461867 0.00014902941 -0.03272638 -0.021563333 -0.01209749 -0.01681733
0.004078893 -0.008019267 -0.010174992 0.02618096 0.021418532 0.0041308403 -0.020373868 -0.04169412
-0.026877519 0.0019750302 -0.016274221 -0.031458385 -0.018279532 0.003537235 -0.018110758 0.007419081
-0.0061336253 -0.03085359 0.0020139508 -0.0012835744 -0.00020349342 -0.036521483 -0.0045437426 0.0025834483

layers.0.bias f4 [6]
00000000: 0000 0000 0000 0000 0000 0000 9331 8635
00000010: 0000 0000 0000 0000
0.0 0.0 0.0 9.998206e-07 0.0 0.0

layers.2.weight f4 [6, 6]
00000000: c2c4 2ebc 2d7f 233c 726f 5dbc 7939 54bd
00000010: ff1c 933c 4723 bc3c 4272 2e3b 41a3 5a3b
00000020: e4d8 4f3b 09dc b73c fd3f 903c 72cb 9cbc
00000030: be29 023c 5519 0dbd 70e4 f93b 2b2c 44bb
00000040: 9da8 9a3b 7273 113c 65ee fe39 2c34 cebc
00000050: 5108 043c 527a eebc aeee 363c a0f1 8c3b
00000060: eb38 d53c 1916 edbc f871 993b ecf2 80bc
00000070: e20d 80ba 398d fa3c 5752 d1bc 7bf4 d6bc
00000080: 457c acbb b5aa d43c 30c4 793c b989 163d
-0.010667028 0.009979052 -0.01351534 -0.051812623 0.017958162 0.02296604 0.0026618396 0.0033361467
0.003171497 0.022443788 0.017608637 -0.019139979 0.007944522 -0.034447987 0.007626109 -0.0029933553
0.0047198073 0.008877622 0.00048624273 -0.025171362 0.008058623 -0.029111061 0.011165304 0.004301265
0.026028117 -0.028941201 0.0046827756 -0.015740834 -0.0009769762 0.030584918 -0.025551958 -0.026239624
-0.0052638375 0.025960306 0.015244529 0.036752436

layers.2.bias f4 [6]
00000000: 9337 86b5 8d37 8635 8f37 86b5 5037 8635
00000010: af37 86b5 9937 86b5
-9.999952e-07 9.999945e-07 -9.999948e-07 9.999876e-07 -9.999984e-07 -9.999959e-07

layers.0.weight f4 [6, 8]
00000000: 4133 a0bc 98f0 213c 8da1 893c c73d b4bc
00000010: 9164 babb e8d6 553c d3b2 f33c da0b 133c
00000020: f02b 35bb 14ae 053c ecf9 573b 66f7 e7bb
00000030: fa0f 2f3d ce2d 69bc 8533 bdbc f254 0b39
00000040: b015 b4bc e508 a53a e935 3bbc 9c27 11bc
00000050: 2be2 84bc fb30 fb3c ecfa e2bc 4007 97bc
00000060: 0389 883b 393d a9bc 8b2b 02bc e429 ed3b
00000070: 0667 453b 81ce 123c 962b 033b 83ab fc3c
00000080: c1e5 163c b583 2ebc be21 03bc 50d1 1fbc
00000090: ca10 603c 5a13 593c ebab 993c ed64 2abd
000000a0: b72a 7dbc 4a3e 56bc 8e52 953c f36b 87bb
000000b0: 5d0b a73c 1a9e 98bc 804a 81bb ceb0 ac3c
-0.01955569 0.009884022 0.016800666 -0.022002114 -0.005688258 0.013051726 0.029748356 0.008974994
-0.0027644597 0.008159179 0.0032955362 -0.0070790527 0.042739846 -0.014232112 -0.023095855 0.00013287718
-0.021982998 0.0012591152 -0.011426427 -0.008859541 -0.016221127 0.030663004 -0.02770754 -0.018436074
0.0041667237 -0.020659076 -0.007944952 0.00723766 0.0030121221 0.008960367 0.0020014993 0.030843502
0.009210051 -0.010651519 -0.00800365 -0.009754494 0.013675878 0.013249243 0.018758735 -0.041600157
-0.015452079 -0.013076374 0.018227842 -0.0041327416 0.02039116 -0.018630076 -0.0039456487 0.0210804

layers.0.bias f4 [6]
00000000: a434 86b5 1937 8635 0000 0000 9e36 86b5
00000010: 2c32 86b5 3c36 86b5
-9.999098e-07 9.999814e-07 0.0 -9.999674e-07 -9.99838e-07 -9.999562e-07

layers.2.weight f4 [6, 6]
00000000: 0ac0 8fbc beec d83c d3db b7bc 7489 073c
00000010: f00a bc3c 51a1 6fbc e3a3 8cbb b9ab b1bc
00000020: d4b4 1a3d 28ff 3abd c4f0 043b 6a54 7abc
00000030: 1413 08bc cb6e b43c f3c4 61bb d3c3 c33b
00000040: 4301 91bb 32a3 13bc 369c 923c 8639 1a3c
00000050: 1043 183c e00c dcbc 349f e8bb e832 503b
00000060: 7c29 e13c f391 23bd 61cc 12bd 3c3d c3ba
00000070: 8ac2 8e3c 2b54 aa3b 0fb6 2fbc d626 aabc
00000080: ab53 9e39 42bd 2b3c a50a 83bb ac84 6a3c
-0.017547626 0.026480075 -0.022443688 0.0082725175 0.022954434 -0.014625863 -0.0042919978 -0.021688329
0.037770107 -0.045653492 0.002028511 -0.015278915 -0.00830533 0.022025486 -0.0034449666 0.005974272
-0.0044251992 -0.009011077 0.017896753 0.009413129 0.009293333 -0.026861608 -0.0070990566 0.0031768624
0.027485602 -0.03993411 -0.035839442 -0.0014895569 0.017426748 0.005198022 -0.0107245585 -0.020770472
0.00030198446 0.010482134 -0.0039990717 0.014313858

layers.2.bias f4 [6]
00000000: fa35 86b5 ae37 8635 af37 8635 ab37 8635
00000010: b237 86b5 b137 86b5
-9.999487e-07 9.999983e-07 9.999984e-07 9.99998e-07 -9.999987e-07 -9.999986e-07

layers.0.weight f4 [6, 8]
00000000: 4da5 a23c 8a61 cebc e579 7cbc 89a2 bfbb
00000010: d2da 203c 6fec c33c 47a6 3ebb d833 acbc
00000020: 6674 543c 97c2 eb3b e7dd a73a e08e b33c
00000030: 192f d8bc 8c01 14bd b4cd 013c 5050 213c
00000040: 77e9 623c 6d40 69bc 34d7 b73b ab8b 08bd
00000050: f738 97bb 9759 f63c c618 6d3a 4a99 0abb
00000060: 14ea 47bc 0d58 9e3c 5dd6 ed3c 8a2f 1fbd
00000070: faad 673b 953b 063c b8b5 593c a872 0b3c
00000080: bcd1 303c 40a5 05bc 4b02 693b f9b3 05bd
00000090: f090 f6bb 02d9 10bb 4b1a 2ebd 9865 6bbc
000000a0: 6541 9f3c cfc9 14bc 1a2d c5ba 910f 413c
000000b0: c7d0 b83a 4d5b afbc cd92 90bc d0b0 21bc
0.019854212 -0.025192995 -0.015409921 -0.005848233 0.009817796 0.023916451 -0.0029090808 -0.021020815
0.012967205 0.007194828 0.0012807221 0.021918714 -0.026389645 -0.036134288 0.007922579 0.009845808
0.013849608 -0.014236552 0.005610371 -0.033336323 -0.004614945 0.030072017 0.0009044524 -0.0021148496
-0.012201805 0.019329095 0.02903288 -0.038863696 0.00353515 0.008192916 0.013287954 0.008511223
0.010792192 -0.008157074 0.0035554345 -0.03264234 -0.007524602 -0.0022102003 -0.042505544 -0.014367484
0.019440362 -0.009081318 -0.0015043349 0.0117834965 0.0014100306 -0.02140584 -0.017648125 -0.009868816

layers.0.bias f4 [6]
00000000: ecfa 8535 f736 8635 4e2a 8635 f130 86b5
00000010: 0000 0000 c32e 86b5
9.9823e-07 9.999775e-07 9.99609e-07 -9.998022e-07 0.0 -9.997387e-07

layers.2.weight f4 [6, 6]
00000000: 288e 4b3c d5c1 24bc 7ea8 333c 6844 813c
00000010: b4ee 0abd 679a 92bc 6cd3 c1bc 112c afbb
00000020: 69b6 01bd 43f1 fabc 92c1 c3ba 3773 cd3b
00000030: 3056 93bc d934 9dbc 5ea8 6b3c 5977 643d
00000040: a185 c4bc 608a 0b3c 624d 693b 3793 1e3d
00000050: c6c2 c13c a3de d9bc ef7c 3e3c a6bb 2c3c
00000060: 669e 0d3d a467 04bc 4866 493c 6afb 263c
00000070: 638b 8e3c a74e a0bc 51f2 3d3c e7fd 6bbc
00000080: 749f a3bc 2077 ef3c 3d54 ce3c 937c 86ba
0.012424029 -0.010055979 0.010965465 0.015779689 -0.03391905 -0.01789589 -0.023660384 -0.0053458293
-0.0316681 -0.03063262 -0.0014935008 0.006269838 -0.017985433 -0.019190239 0.014383404 0.05577788
-0.0239895 0.008516878 0.0035599102 0.038714614 0.023652446 -0.02659542 0.011626466 0.010542786
0.03457489 -0.0080813505 0.012292452 0.010191778 0.01740045 -0.019568754 0.011593417 -0.014403797
-0.019973494 0.029231608 0.025186652 -0.0010260515

layers.2.bias f4 [6]
00000000: 9137 86b5 b437 86b5 fc36 8635 b237 8635
00000010: ae37 86b5 9a37 86b5
-9.99995e-07 -9.99999e-07 9.99978e-07 9.999987e-07 -9.999983e-07 -9.99996e-07

layers.0.weight f4 [6, 8]
00000000: 88a5 8c3c 2758 4f3c 46ce 8bba 86cd 1a3b
00000010: 9fa4 db3c 3024 97bc 6c7f f3bb 1151 943b
00000020: a2a1 50bc d4e9 043d 7fbe be3b d4f4 a43a
00000030: 516b b239 56a8 8fbc e882 c13c b0d2 49bc
00000040: 7950 903c 0879 e6bc e7d1 3e3d 3111 623b
00000050: ac74 fc3c e7e4 01bd ec4d 83bc 327e 953c
00000060: b1e3 5d3d 72e9 0fbc 369f d73b 4674 333c
00000070: 58aa 693c c97f 593c db36 aebb d282 533c
00000080: 09d8 85bc 6436 91bb 88dc d13b f2f0 c93c
00000090: 58e6 143c ca8d 43bc e9a7 cc3b 1e45 a6bc
000000a0: 81db c7bb ade6 11bd fdae c0bc bba6 24bc
000000b0: a667 5b3c 8309 6bbc 0e11 363b 1ee9 43bd
0.017168775 0.0126552945 -0.0010666333 0.0023621037 0.026811896 -0.018449873 -0.0074309614 0.0045262654
-0.012733849 0.03244956 0.0058210487 0.0012585171 0.00034030763 -0.017536324 0.023621991 -0.012318298
0.017616497 -0.028133884 0.046586897 0.003449511 0.030817352 -0.03171244 -0.016028367 0.018248651
0.05417222 -0.008783685 0.0065802587 0.010953015 0.0142618045 0.013275095 -0.005316598 0.012909608
-0.016338365 -0.0044315327 0.006404463 0.024651024 0.009088121 -0.011935661 0.0062456024 -0.02029663
-0.006099165 -0.03562038 -0.02352094 -0.010049517 0.013391411 -0.0143455295 0.0027781161 -0.04782974

layers.0.bias f4 [6]
00000000: c134 8635 2036 86b5 6d36 8635 2936 86b5
00000010: 492f 8635 0000 0000
9.999131e-07 -9.99953e-07 9.999618e-07 -9.999541e-07 9.99754e-07 0.0

layers.2.weight f4 [6, 6]
00000000: b0be c83b bb2e f73c d11c 9f3b 90ba efbc
00000010: 5194 94bc 4989 023d 7921 b9bb 9b45 fdbb
00000020: a03c 5f3c edcd cb3b d704 1bbc 9f11 8ebc
00000030: acd1 0f3d ed0a 5a3c 1aa3 c1bb 9a8c 123d
00000040: 9c3a adbb 00af 633b 6bf9 c2bb 127a 8c3c
00000050: 8b56 8a3c 2795 adbc 5f38 313c 7bcb bdbb
00000060: b441 dcbc 9b05 363c d903 dd3b daa1 be3c
00000070: 3a1e dd3b 0084 0fbc aee5 b13c 2b59 9c3b
00000080: acd5 113d 7cf0 56bc 5db7 c0bb d23e 26ba
0.0061262473 0.03017365 0.00485573 -0.029263765 -0.018137129 0.031869207 -0.005649742 -0.007729245
0.013625294 0.0062196166 -0.009461603 -0.017342387 0.035112068 0.013308269 -0.005909336 0.03577862
-0.005286528 0.003474176 -0.005950143 0.017148051 0.01688697 -0.021189285 0.010816663 -0.005792079
-0.026886798 0.011109735 0.0067448434 0.023270536 0.006747988 -0.008759499 0.021715965 0.004771372
0.035604164 -0.013118859 -0.0058812336 -0.00063417584

layers.2.bias f4 [6]
00000000: af37 86b5 aa37 8635 9137 86b5 af37 8635
00000010: b137 86b5 a837 8635
-9.999984e-07 9.999978e-07 -9.99995e-07 9.999984e-07 -9.999986e-07 9.999976e-07

layers.0.weight f4 [6, 8]
00000000: dacd d43b f100 08bd b67a e03c ac94 af3c
00000010: 75f8 593b 6118 7f3c abe9 223c 5fbb c3bc
00000020: 9a9b f43c 8aca 233b d476 23bc 3304 a7bc
00000030: 882c 843b e757 123c 8554 fabb f0c6 f8bc
00000040: 31cc 0d3c cf5c 163c 6159 30bc 228d 023d
00000050: 8727 1ebc e071 203d 76a3 263c 1db6 82bc
00000060: 33b2 a13b b85e 3abd 7234 01bb 1795 0abd
00000070: 6b2b 1d3d f3a9 89bb d964 90bc 9922 9e3c
00000080: 5fc2 883c 4261 19bc 5bf0 fab9 105f fcbb
00000090: 4da1 19bc a280 42bb dc46 203c 345c 6a3c
000000a0: e2c2 bcbc f034 afbb 2600 463c 7769 103c
000000b0: b0a3 263c 189e e8bc 25f7 56bc 04d9 2dbc
0.006494266 -0.033204023 0.027402263 0.021433197 0.0033259664 0.015569777 0.009943406 -0.023893056
0.029859353 0.002499255 -0.009977061 -0.020387745 0.004033629 0.00893209 -0.00763947 -0.030368298
0.00865464 0.009177401 -0.010763497 0.031872876 -0.009652979 0.0391711 0.010170808 -0.015955979
0.004934573 -0.045500487 -0.0019715098 -0.03383359 0.038371485 -0.0042011677 -0.017626213 0.019303607
0.016694246 -0.009361567 -0.00047862795 -0.007701762 -0.009376836 -0.0029678722 0.009782519 0.0143042095
-0.023042146 -0.005346887 0.012084996 0.008814207 0.010170862 -0.028395697 -0.013120447 -0.010610823

layers.0.bias f4 [6]
00000000: a836 8635 0c28 86b5 4534 8635 0000 0000
00000010: 8e35 8635 0000 0000
9.999685e-07 -9.995433e-07 9.99899e-07 0.0 9.999364e-07 0.0

layers.2.weight f4 [6, 6]
00000000: 3ff4 f83b e34c 2e3c 8372 e2bc 78c0 693c
00000010: 11e4 e03c 64b6 aebc 544e 81bb 2e04 c73b
00000020: e605 14bc 9877 9b3c c232 093b b4dd 183c
00000030: 1528 d2bc 1f59 80bb f07f cdbc b364 9e3b
00000040: ec4d ecbb d90b f83c 1a25 203d a79c 5b3b
00000050: 1169 20bb f022 e6bb 263a b3bc fbe1 4abc
00000060: 8dcf 003b a246 23bd 6866 c33c 99e0 7b3c
00000070: c23b bebc 8e29 f7bc cee2 90bc 7dda 2d3c
00000080: 846a e83b 4201 83bc ccdd 40bb ddd4 42bd
0.007597476 0.010638448 -0.027642494 0.0142670795 0.0274525 -0.021327205 -0.003946105 0.0060734963
-0.009034609 0.018977925 0.0020934795 0.009330202 -0.025653878 -0.003916874 -0.02508542 0.0048337816
-0.0072114374 0.030279087 0.039097883 0.003351012 -0.0024476687 -0.007023208 -0.021878313 -0.0123829795
0.001965496 -0.039862283 0.023852542 0.0153733725 -0.023221854 -0.030171182 -0.017686274 0.010611174
0.007092776 -0.01599181 -0.0029429076 -0.047566283

layers.2.bias f4 [6]
00000000: 4237 8635 1131 86b5 b237 86b5 5f37 8635
00000010: a337 86b5 a937 86b5
9.99986e-07 -9.998058e-07 -9.999987e-07 9.999893e-07 -9.99997e-07 -9.999977e-07

layers.0.weight f4 [6, 8]
00000000: 3926 ad3c 6f18 89bc 09bf 4d3c 9d26 f1bc
00000010: ad9b a8bc 7dc6 943c 4d90 8cbc 0bfd 63bc
00000020: 3bb3 fa3c af57 643c 5f2f 823c 5246 1abb
00000030: 8acc 35bc a42b 9cba b81e b3bc 5fac 8639
00000040: 5c82 ffbb 571a 8a3c 6d78 95bc 22d0 2a3c
00000050: 6fe7 dcbc 4e56 20bd 610e 62bc a57b 80bc
00000060: 29bb f63b 6be4 2bb9 8a77 243c 6b6b 623b
00000070: 8cc8 423a e29b cebb 7c4d 043d 665a b63b
00000080: ca2f 10bc b7be ff3b 987f 39bc cac8 d5bc
00000090: 8296 d8bc 148d d0bb f488 22bc 7b01 a93c
000000a0: 16db 8db8 dbfa e5bc d35c 0d3b 7dfd 6dbc
000000b0: 45e2 ff3c 851a 30bc 71e8 62bc 834b 6d3c
0.02113639 -0.016735284 0.012557753 -0.029437358 -0.020582044 0.018161053 -0.017158652 -0.013915311
0.030603042 0.013936921 0.015891729 -0.002354045 -0.011096129 -0.0011914861 -0.021865234 0.00025686898
-0.0077975225 0.016858263 -0.0182459 0.010425599 -0.026965825 -0.039144807 -0.0137973735 -0.015683958
0.0075296354 -0.00016392923 0.010038266 0.003454889 0.00074303965 -0.006305204 0.032300457 0.0055649756
-0.008800456 0.0078047174 -0.011321925 -0.02609672 -0.026438955 -0.006364474 -0.0099203475 0.020630589
-6.764212e-05 -0.028073719 0.002157022 -0.014525768 0.031235823 -0.01074851 -0.013849364 0.014483335

layers.0.bias f4 [6]
00000000: 0000 0000 4e19 86b5 0000 0000 5634 86b5
00000010: 0000 0000 57b3 85b5
0.0 -9.991143e-07 0.0 -9.99901e-07 0.0 -9.961467e-07

layers.2.weight f4 [6, 6]
00000000: 5b4c 8d3b 3178 793c 2de7 0f3d 2372 bb3a
00000010: f6b5 a43c d3b4 29bc 5e10 403b 9d89 643b
00000020: d761 0a3d fbd3 573c 097e 093d 6b8e 83ba
00000030: 7273 0d3c 1093 f93c a2ab 1dbd 209f c0bc
00000040: 98b0 dfbb e4d2 f03b a5c7 afbc 124f 983b
00000050: c417 8c3c 85f7 8e3c 5790 d3bc b35b a73c
00000060: f3f3 f9ba 25ba 26bc fd27 30bc d23a ce3c
00000070: 8b86 debc 96c7 953b 4b8b 6abb 8c18 a4bb
00000080: 22fb 4bbc 9ee3 f13c 3ceb bdbb 2f2b a03b
0.004312081 0.01522641 0.035132576 0.0014300983 0.020106297 -0.010358053 0.002930663 0.0034872063
0.033784714 0.013173099 0.033567462 -0.0010036951 0.008633481 0.030465633 -0.03849376 -0.023513377
-0.0068264715 0.007349359 -0.021457503 0.004648098 0.017101176 0.01745201 -0.025825663 0.020429468
-0.0019069895 -0.010176216 -0.010751721 0.025174532 -0.027163764 0.0045709116 -0.0035788591 -0.005007809
-0.012450011 0.029527482 -0.0057958644 0.0048879604

layers.2.bias f4 [6]
00000000: 8d37 86b5 8a37 8635 a337 86b5 ac37 8635
00000010: af37 86b5 a737 86b5
-9.999945e-07 9.999942e-07 -9.99997e-07 9.999981e-07 -9.999984e-07 -9.999975e-07

layers.0.weight f4 [6, 8]
00000000: 5f37 1dbc b53a e5bb ae71 d23b 0443 8b3c
00000010: 6fb1 d438 8aa2 5a3c a781 3abc 9b1f 34bd
00000020: c6f6 f9bc bff1 593c d8ea be3c a0d4 8b3b
00000030: 3229 fd3b 1999 d23c 2411 83bb 8779 28bd
00000040: b435 78bc 8e03 70bc 4e89 45bc 2a5e e73b
00000050: 54df 2c3c 5e47 c43c a3da a63a b892 b93b
00000060: e769 34bd 1ad2 ae3c bf66 843c 6949 6d3c
00000070: 0f99 963c efa8 c53c 18c4 6a3b 70de cc3a
00000080: 9a30 80bc 1186 183d 107b 0cbb 5c32 233d
00000090: 788e fbbb 6c8b 64bc bbe1 e7b9 04a1 013c
000000a0: 4706 9dba 6e99 b0bc 864e 663c bd29 2bbc
000000b0: b39b 2c3b d669 af3c eb74 b5bc e613 d4bb
-0.009595721 -0.006995524 0.006422243 0.016999729 0.00010141997 0.013344416 -0.011383451 -0.043975454
-0.030513179 0.013302266 0.023305342 0.0042672902 0.007725858 0.025707768 -0.003999846 -0.041131523
-0.015149523 -0.014649285 -0.012056662 0.007060786 0.010551292 0.023959812 0.0012729954 0.005663242
-0.04404631 0.021340419 0.016162274 0.014482834 0.01838353 0.024128405 0.0035822447 0.0015630256
-0.015648175 0.03723723 -0.0021435656 0.03984295 -0.0076768957 -0.013949256 -0.00044227936 0.007911924
-0.001198002 -0.021557536 0.014056807 -0.010446963 0.002633792 0.021412771 -0.022150477 -0.0064720986

layers.0.bias f4 [6]
00000000: 0000 0000 e3d4 85b5 02ef 8535 0b35 8635
00000010: 4236 8635 0000 0000
0.0 -9.97123e-07 9.978833e-07 9.999216e-07 9.999569e-07 0.0

layers.2.weight f4 [6, 6]
00000000: fe0b 2c3d 9fb6 d2bb ec89 3e3b 3156 edbb
00000010: 17a2 883c b577 37bc ddb5 fcbc 4eb1 8bbb
00000020: 37ee 9f3c d2ab 0f3d 7174 c23b 1b13 9abc
00000030: 1942 9d3c 13dc 393c 0c45 29bc bd19 9fbc
00000040: 401b efb9 c10a f4bc 1c1e ddba 761d 1cbc
00000050: 88d0 12b9 1804 10bc e36d 19bd cf8c b53a
00000060: 7efb 833c 4116 c23b cbc1 86bc 2ffe 423c
00000070: 08bc aabc d333 af3c 7e73 4dbc 7d6d ce3b
00000080: 9f4f efb9 a57f a63c 83b5 503c f68b 0cbc
0.042003624 -0.0064304615 0.0029073907 -0.007242941 0.016678853 -0.011197974 -0.030848438 -0.0042630797
0.01952277 0.03507597 0.005934291 -0.018807938 0.019196557 0.011343974 -0.010331403 -0.019421453
-0.00045605935 -0.029790284 -0.0016869935 -0.009528508 -0.00014001329 -0.0087900385 -0.03745831 0.0013851168
0.016111132 0.005923063 -0.01644983 0.011901422 -0.020841613 0.021387016 -0.0125397425 0.006299673
-0.00045644955 0.020324538 0.012738588 -0.008578291

layers.2.bias f4 [6]
00000000: 8f37 8635 af37 8635 aa37 86b5 7137 86b5
00000010: af37 86b5 5937 86b5
9.999948e-07 9.999984e-07 -9.999978e-07 -9.999914e-07 -9.999984e-07 -9.999886e-07

layers.0.weight f4 [6, 8]
00000000: 7948 15bd 048b b63b f74f 23bd 5042 82bc
00000010: 0c05 6c3c f444 aa3c 93ad 8a3c 2e5f cc3b
00000020: af48 1abc 82f3 a53b 59f5 6bbb 49b3 fb3c
00000030: 7b4f 4b3c fdfb a33b 1bf1 c5bb 8d36 acbb
00000040: 7184 01bc e575 253c 9c70 873c 864b 063d
00000050: 7295 74bc 3f9b d43c ed0c b1bc 8b91 973c
00000060: 9b36 4bbd 5b91 eb3c 9ae5 e0bc aaee 69bb
00000070: cc26 193d d243 873b c770 583c 9e40 113d
00000080: 5de9 62bb 6de6 feba faf9 f0bb 1bcf 81bc
00000090: ae0c f23c 1bcd c2bc 5009 3fbd 1494 e93a
000000a0: afd8 88bd d73a a33c 9e31 56bc cbfe 083d
000000b0: 22de 06bc 5b27 863c bb43 70bc 90a7 b93a
-0.03644607 0.005570771 -0.039871182 -0.01590076 0.0144055 0.020784833 0.01692847 0.0062369322
-0.009416743 0.005064429 -0.0036004393 0.030725138 0.012409086 0.0050044046 -0.006040705 -0.0052555264
-0.007905112 0.010098909 0.016533189 0.03278687 -0.014928209 0.025952933 -0.021612609 0.018502017
-0.049612623 0.028755834 -0.027453233 -0.0035695233 0.037390515 0.004127958 0.013210482 0.035462014
-0.0034623959 -0.0019447334 -0.0073540183 -0.015845826 0.029547062 -0.023779443 -0.04663974 0.001782062
-0.06681954 0.019925518 -0.013073353 0.033446115 -0.0082316715 0.016376188 -0.014664586 0.0014164317

layers.0.bias f4 [6]
00000000: 0000 0000 2535 86b5 4a32 86b5 6a36 8635
00000010: 5736 86b5 0000 0000
0.0 -9.999245e-07 -9.998414e-07 9.999615e-07 -9.999593e-07 0.0

layers.2.weight f4 [6, 6]
00000000: 3de0 cebc 0a0c 033b e311 8e3b e8cc 033d
00000010: e5c7 94bc c932 133d 9e20 40bc ff48 cabc
00000020: 090d d3bc 8333 9439 c263 0cbd 5742 b73c
00000030: 2051 1ebd 20b3 7ebb 6438 653c 8349 39bc
00000040: f9de 44bd 773d 6b3a 0524 2c3d 7a4e 28bc
00000050: b56a 5cbc 43f6 363c d858 1c3d 32c2 adb9
00000060: 6c67 92bc 4e4f 5cbc 44e5 aa37 3ada c0bb
00000070: 8822 3d3c c234 4cbc 966d 813b 133f fd3c
00000080: 4da7 8bbc f129 07bd 41a8 72bc ad0c 07bc
-0.02525341 0.001999619 0.0043356284 0.032177836 -0.018161723 0.035937104 -0.011726527 -0.02469301
-0.025763052 0.0002826714 -0.034274824 0.0223705 -0.038651586 -0.003886409 0.013990495 -0.0113090305
-0.048064206 0.00089736975 0.04202654 -0.0102726165 -0.013453175 0.011167112 0.038170666 -0.00033141818
-0.017871581 -0.013446642 2.037234e-05 -0.0058853896 0.011543877 -0.01246375 0.0039498312 0.030913865
-0.017047549 -0.032998983 -0.014810623 -0.008242768

layers.2.bias f4 [6]
00000000: b137 8635 af37 8635 ab37 8635 3b37 86b5
00000010: ae37 86b5 9137 86b5
9.999986e-07 9.999984e-07 9.99998e-07 -9.999852e-07 -9.999983e-07 -9.99995e-07

layers.0.weight f4 [6, 8]
00000000: 30ef 6f3c 0dc8 c3bb 18f6 7e3b 4843 a3bb
00000010: 2bb5 4d3c 994b 893c 6041 f83a ba2b 40bd
00000020: 6e6c 913c 851e 23bd fcb5 9c3b 33cf 033c
00000030: db59 143c b65e 183b 082d 6a3c 134c a2bb
00000040: ebf7 e43c a477 8d3c f14f b03c 2c56 373d
00000050: 3bb4 b73c 3251 4bbd 802e a038 654a 07bc
00000060: c13c a23c 3c64 d13c 45fd b63c da8e f43b
00000070: 1a67 8dbb 12b6 0bbd 0af6 edbb 4438 5b3c
00000080: e02a 943c d87a 6a3c 5ca3 0bba de52 c9bc
00000090: 4f79 133d 2f2e aa3c f742 7e3c 8c27 773c
000000a0: 52cb aabc 5ba7 233b 63fd f83a f667 aabb
000000b0: 0ba9 8abb 7633 12bb 9492 cb3c 5f71 e23c
0.014644429 -0.0059747756 0.0038904008 -0.004982386 0.012555401 0.01675968 0.0018940382 -0.0469167
0.017751899 -0.039824028 0.0047824364 0.008045006 0.009054626 0.0023249811 0.014292963 -0.0049529164
0.027950248 0.017268963 0.021522494 0.044759914 0.022424808 -0.04963798 7.638056e-05 -0.008257483
0.01980436 0.02556049 0.022337565 0.0074633183 -0.004315269 -0.034109183 -0.007261996 0.013380114
0.01808685 0.014311515 -0.00053267716 -0.024575647 0.03600436 0.020773975 0.015518895 0.015085112
-0.020848904 0.0024971578 0.0018996414 -0.0052003814 -0.0042315773 -0.0022308505 0.024850167 0.02764195

layers.0.bias f4 [6]
00000000: dc35 8635 c328 8635 9f33 8635 d625 86b5
00000010: 1336 86b5 5336 86b5
9.999453e-07 9.995641e-07 9.998802e-07 -9.99479e-07 -9.999516e-07 -9.999588e-07

layers.2.weight f4 [6, 6]
00000000: e6ec 01bd e4b2 b4bc 8a20 503c 1438 663c
00000010: 2208 363a b5e4 ac3c 3f1e 2ebd 9f69 913c
00000020: ff99 333d 0c61 563b 942e a7bb 84a7 a63b
00000030: a7dc 10bd 22c0 f33c 40ed 733c 06c7 1cbc
00000040: 944e 82bc 4d4e 323b b3d0 83bc 7261 023d
00000050: 3a15 ba3c a856 7dbc fb2a 9fbc 69ab 59bb
00000060: 8ed3 03bd ed83 f33c f0af 2dbc c1a2 0abc
00000070: 8d49 283d d5f7 1f3d f73c 74bc e342 70bc
00000080: 889f 043b 633d 5ebc 9768 5bbc 476a 36bc
-0.031720065 -0.022057958 0.01270307 0.014051456 0.0006943961 0.02110515 -0.042509314 0.01775056
0.043848034 0.0032711653 -0.005101988 0.0050858874 -0.03536668 0.029754702 0.014888108 -0.009568935
-0.01590661 0.0027207315 -0.016090726 0.031831212 0.0227152 -0.015462555 -0.019429674 -0.003321374
-0.032184176 0.029725993 -0.010601029 -0.008461655 0.04108577 0.03905471 -0.014907113 -0.014664385
0.002023669 -0.01356444 -0.013391635 -0.011133737

layers.2.bias f4 [6]
00000000: a737 86b5 7d37 8635 0837 86b5 8537 8635
00000010: aa37 86b5 6d37 86b5
-9.999975e-07 9.999927e-07 -9.999794e-07 9.999936e-07 -9.999978e-07 -9.999909e-07

layers.0.weight f4 [6, 8]
00000000: 52ce 8fbc 75b2 dcbb 7d20 47bb dcb1 a2bb
00000010: a6a5 353b 75c3 76bd fe7a b03a cfde ff3c
00000020: c95b 23bc de06 90ba 3b0d b63c 1555 78bc
00000030: 1dd7 bebb 2fb1 363c 8207 e63c a744 b8bc
00000040: 09d4 2abc a5c8 373c 129e 803c d2f8 29bd
00000050: 6f22 eebc 3990 2fbd b74e b9bb 5028 feba
00000060: e560 9fbc 3af5 a2bb 4a3f 003d f1ea 3abd
00000070: d9b2 363d 9e7c 223c 6fa7 49bd 9377 f0b9
00000080: 84c1 8fbc 53ac 8e3b b760 e1bb 9cf1 73bc
00000090: a45d 09bd 8b00 6a3b b32e 3d3c 0a4e 5ebc
000000a0: 8028 b2ba 7052 a3bc eb24 f4bc 3d05 17bb
000000b0: e7cd 8ebc 0d17 84bb 5497 0f3b 6e8b cd3c
-0.017554436 -0.006735141 -0.0030384355 -0.00496505 0.0027717142 -0.060244996 0.0013464389 0.031234173
-0.009970614 -0.0010988375 0.022223106 -0.015157004 -0.0058239833 0.011150642 0.028079752 -0.022493673
-0.01042653 0.011217271 0.015700374 -0.04149706 -0.029069154 -0.04286215 -0.0056551355 -0.0019390676
-0.019455383 -0.004973081 0.031310357 -0.045634214 0.044604156 0.009917406 -0.049231943 -0.00045865457
-0.01754833 0.0043540387 -0.0068779844 -0.014889147 -0.03353657 0.003570589 0.0115467785 -0.013568411
-0.0013592392 -0.01993677 -0.02980276 -0.0023043894 -0.017432166 -0.004031068 0.0021910267 0.0250909

layers.0.bias f4 [6]
00000000: 0000 0000 c834 8635 0000 0000 fe0b 8635
00000010: 0000 0000 0000 0000
0.0 9.999139e-07 0.0 9.987268e-07 0.0 0.0

layers.2.weight f4 [6, 6]
00000000: 3d13 cdbb e09c 4fbb 0180 a6bc 3d6a 02bd
00000010: b54d e63c f25d 483c f41e 653c be10 623c
00000020: 742f 163d 5ec1 14bc d2aa d2bc 14c6 a6bc
00000030: 4231 0dbc b91a b43a 8584 e73a 0f56 c4bc
00000040: 796a 8d3a db5e 20bb b08a f93b b619 08bd
00000050: fe4d fc3b 092f b13c e777 3fbb d751 553c
00000060: b6f0 abbb 932d 4f3b de9b 343c 3d34 39bc
00000070: 531e 333c 220f 68bc 181d 04bc 8ff6 8b3c
00000080: c23c b63c d038 64bb e03c 98bb 7de8 6abb
-0.006258397 -0.0031679198 -0.020324709 -0.031839598 0.028113225 0.01222943 0.013984431 0.013797937
0.03666635 -0.009079305 -0.02571622 -0.020358123 -0.008617701 0.0013740874 0.0017663395 -0.023966817
0.0010789178 -0.00244706 0.00761541 -0.033227645 0.007699727 0.021628873 -0.0029215754 0.01302
-0.005247201 0.0031612858 0.01102349 -0.0113039585 0.010932523 -0.014163764 -0.008063577 0.017085342
0.022245768 -0.0034823902 -0.0046459287 -0.003584414

layers.2.bias f4 [6]
00000000: aa37 86b5 a037 86b5 a937 8635 9e37 86b5
00000010: 9d37 86b5 a137 8635
-9.999978e-07 -9.999967e-07 9.999977e-07 -9.999965e-07 -9.999964e-07 9.999968e-07

layers.0.weight f4 [6, 8]
00000000: b34b eebc bff8 d43b c7ec 10bd dbeb c13a
00000010: 40f0 ab3c 13f1 c83c d401 e13c 5199 e2ba
00000020: 5d2f 97bc 8915 8bbc 640d 123c 0d0f a9bb
00000030: 9b2c 353c f6b5 1bbd 42ed 0d3b 207d 0ebc
00000040: 304c b8bb 615d 8fbc f7d1 99bc 8e01 6cbc
00000050: af92 89bc efd0 ffbb fdd2 30bc 4d2c 12bd
00000060: 34a5 abbb 810b c3bb 9ca5 3a3c 0cc6 7abc
00000070: dd9d 60bc b9c1 cd3b 5ddb 23bb 43c3 11bc
00000080: b0a8 3bbd 871f be3b c4a6 29bc 00f3 3c3c
00000090: a53e 483c 0823 153c 87d6 13bc 7f71 973a
000000a0: feff 4e3c dd2f 9e3a bd58 d7bb 2105 37bc
000000b0: c65c f0bc 4b35 f63b e28f 4d3c 1282 84bc
-0.02908883 0.0064993794 -0.03538206 0.0014795022 0.020988584 0.024529016 0.027466692 -0.0017288123
-0.018455202 -0.016978042 0.008914325 -0.005159265 0.011057998 -0.03801533 0.002165631 -0.008696824
-0.0056243166 -0.017500581 -0.018776877 -0.014404668 -0.016793577 -0.0078068892 -0.010792491 -0.03568678
-0.0052381996 -0.005952299 0.011392023 -0.015306007 -0.013709513 0.006279197 -0.0025002577 -0.008896652
-0.04581517 0.005802098 -0.010354701 0.011532545 0.012221967 0.00910259 -0.009023315 0.001155421
0.0126342755 0.0012068708 -0.0065718577 -0.011170656 -0.029341113 0.0075136772 0.012546511 -0.016175304

layers.0.bias f4 [6]
00000000: aa31 8635 0000 0000 0000 0000 0000 0000
00000010: 0000 0000 0000 0000
9.998232e-07 0.0 0.0 0.0 0.0 0.0

layers.2.weight f4 [6, 6]
00000000: 85f5 c8bb 072d 963c 50f7 cb3c be3d 4fbc
00000010: e964 30bb f84b 54bd 546d 743c f257 8ebc
00000020: 32d7 f1bc 0752 d7bc ea39 9d3c 1204 74bc
00000030: c4f6 193d adad 08bc 1bf5 d83c 6f2f 3b3c
00000040: 2666 c0bc 34a9 583b 5a1e 31bc 39ca 7bbc
00000050: 9734 1dbc 8776 81bc d4f3 e4bb 3457 183c
00000060: 1434 b2bb 39d6 a2bc 8986 453b d8bf 2bbb
00000070: c020 ce3a 1bf4 183d 5393 8e3b 0737 83bc
00000080: f7d1 eb3c 6247 c6bb 454a b63a 2e26 3c3c
-0.006132784 0.018332018 0.024898201 -0.012648998 -0.0026915616 -0.051830262 0.014918644 -0.01737592
-0.029521558 -0.02628423 0.019192655 -0.014893549 0.03758885 -0.008342189 0.026484063 0.011424883
-0.023486208 0.0033059837 -0.010810459 -0.015368038 -0.009595058 -0.015803589 -0.0069870744 0.009298135
-0.005438337 -0.01987754 0.0030140004 -0.0026206877 0.0015726313 0.037342172 0.0043510585 -0.01601745
0.028786642 -0.00605099 0.0013907632 0.011483712

layers.2.bias f4 [6]
00000000: 9837 86b5 8f37 8635 2937 86b5 0b37 8635
00000010: af37 86b5 7537 86b5
-9.999958e-07 9.999948e-07 -9.999832e-07 9.999798e-07 -9.999984e-07 -9.999918e-07

layers.0.weight f4 [6, 8]
00000000: 1d09 803c a40e a43c 9213 07bd 3b07 2dbc
00000010: f92e e0bc 6650 e03b 0056 053b eb71 b8bc
00000020: 18e3 c7bb a345 42bc 75b1 ea3c 6b04 c83a
00000030: 00f1 6b3b 0fe5 cabc 4eab 843c 7e42 b7bc
00000040: 7134 0fbd 19ab 0d3d 7415 80bc d4bc 0fbd
00000050: 6279 bbbb 106b 3a3c dbc7 303d c7b3 b0ba
00000060: af88 86bb 2b94 c5bb c542 cebb 6e61 303a
00000070: 99ea b2bb 106e 6d3c 5b5d fb3a efdc 80bc
00000080: 21f4 863c c296 cebc 385b 7839 1c4c b0bc
00000090: 224e 32bc 0bab 0dbc 6edf de3b 0bb6 973b
000000a0: c3a9 68bc 424b a43c 74d2 b93c ed34 093d
000000b0: 43d7 3e3b 13c9 473c 899f 8a3a af6f ebbb
0.015629346 0.020026512 -0.032977648 -0.010560806 -0.027366148 0.0068455217 0.002034545 -0.022515258
-0.0061000697 -0.011857423 0.028649071 0.0015260106 0.0036001801 -0.024767427 0.016194966 -0.022370573
-0.03496212 0.034587 -0.01563523 -0.03509219 -0.005721257 0.011378065 0.043159347 -0.0013481312
-0.0041056494 -0.006029626 -0.0062945806 0.00067283853 -0.005460095 0.014491573 0.0019177602 -0.01573035
0.016473832 -0.025218371 0.00023685105 -0.021520667 -0.010882886 -0.008646737 0.0068015372 0.0046298555
-0.014200631 0.020055417 0.02268336 0.03349774 0.0029120005 0.012193936 0.001057611 -0.0071849446

layers.0.bias f4 [6]
00000000: 0000 0000 1e33 86b5 8327 86b5 0000 0000
00000010: 0000 0000 a633 86b5
0.0 -9.998655e-07 -9.995277e-07 0.0 0.0 -9.99881e-07

layers.2.weight f4 [6, 6]
00000000: 09ac ae3c e821 a23b da17 e13c c648 8abc
00000010: de34 6e3c ffa4 b03b 5bf5 293b 7843 c13b
00000020: 5c76 f53b 90b5 20bc 4c2d 083c 2d72 eb3b
00000030: 47ed 493c 86c7 f83b 9825 c73a 3e4c e83c
00000040: 2d94 b33c 9cb9 cd3c 03de 193c 5e80 fcbc
00000050: 663e 243c aeaa fab7 876d e5bc 3b60 5cbc
00000060: c082 9abc 12a2 f9bb 7229 693b 27ed 133d
00000070: f5c7 1e3d 4623 413c d0a4 7bbc 9487 833d
00000080: 3250 b23c c667 833c 545b c3bc 266d 8a3c
0.021322267 0.0049478896 0.027477194 -0.016880404 0.014538972 0.005390763 0.0025933597 0.0058979355
0.007490916 -0.009808913 0.008311581 0.0071852417 0.012324638 0.0075921444 0.0015193699 0.028356668
0.021921242 0.02511292 0.009391311 -0.030822929 0.010024643 -2.9881801e-05 -0.028006328 -0.0134506775
-0.018861175 -0.0076181972 0.0035577682 0.036114838 0.038764913 0.011788195 -0.015359119 0.06422344
0.021766756 0.016040694 -0.02384726 0.01689775

layers.2.bias f4 [6]
00000000: 7837 8635 b137 8635 aa37 86b5 9f37 86b5
00000010: 7137 86b5 a137 86b5
9.999922e-07 9.999986e-07 -9.999978e-07 -9.999966e-07 -9.999914e-07 -9.999968e-07

layers.0.weight f4 [6, 8]
00000000: f04e 5b3c b338 0bbc d90a b5bc bc21 da3c
00000010: d0f2 ddbb f71e c13c cf9c d6bc 1df2 55bc
00000020: 9e89 93bb 7f27 3d3d a803 15bc 7a14 e139
00000030: 9b62 f13c 4c43 ddbc bfbe 29bc 3e9e 79bb
00000040: 2a1e ee3b 9622 113c 93c2 083d ef2b 9c3a
00000050: e9b3 233c ff9f 10bc 1675 33bd 2fc4 5e3c
00000060: 87bb 7e3c 0f04 f6b9 4aa6 bfbc 6174 3f3c
00000070: fab6 1d3d 17d1 2e3c 7387 2b3b acd8 a3bc
00000080: acd0 f43b 38f4 16bc f854 443d fd56 50bc
00000090: 97c9 373c 7991 583d 4e46 cdbb 4043 913c
000000a0: 7d5c 313c 2b85 01bd b0f9 413b bf99 ddbc
000000b0: aeb7 573c ef5c 113c 0ca1 843c 6757 a0bc
0.013385519 -0.008497405 -0.0220999 0.026627414 -0.0067733303 0.023574336 -0.026197819 -0.013058213
-0.004502489 0.046180245 -0.00909511 0.000429306 0.029465964 -0.027009629 -0.010360419 -0.0038088704
0.0072667794 0.008858344 0.033388685 0.0011914949 0.009991624 -0.008827209 -0.043812834 0.0135965785
0.01554764 -0.000469238 -0.023394722 0.011685462 0.03850458 0.010669968 0.0026173263 -0.020000778
0.0074711647 -0.0092135 0.047932595 -0.012716052 0.011217496 0.05287311 -0.0062644845 0.017732263
0.010825274 -0.03162114 0.0029598288 -0.02705085 0.013166351 0.008872255 0.016190074 -0.019572927

layers.0.bias f4 [6]
00000000: 0000 0000 fd36 86b5 6835 8635 6431 85b5
00000010: 4d37 86b5 fb1d 8635
0.0 -9.999782e-07 9.999321e-07 -9.923647e-07 -9.999873e-07 9.992503e-07

layers.2.weight f4 [6, 6]
00000000: 2503 3f3c dfe3 a33b a6e8 7dbc 0cc8 993c
00000010: 7272 943b 2dd4 08bb 94a5 27bb cc18 2cbd
00000020: 0e19 f83c 8536 e6bb 884a f73c 8061 953b
00000030: 584b 753c bd40 83bb a3f8 75bc 6ba4 03bd
00000040: 328a de3c d777 923c bd1e 50bc 2f83 5f3c
00000050: 12f8 923c 4d81 d7bb 6b68 4cbc 64b3 05bd
00000060: eb38 91bc 2f6c 173d c5b5 08bd 8a6b c8bb
00000070: 952c 4e3d 47f5 97bc 89dd 113d d200 3f3d
00000080: 883e b03c 5a9a c23c 6331 b33b bb64 7cbb
0.011658465 0.0050015296 -0.015497362 0.018772148 0.0045302445 -0.002087842 -0.002558087 -0.042015836
0.030285385 -0.007025542 0.030186906 0.004558742 0.014971577 -0.00400552 -0.015012893 -0.032139223
0.027165506 0.01787941 -0.012702641 0.013642116 0.017940555 -0.006576693 -0.012476067 -0.032641783
-0.017727336 0.036968406 -0.033376474 -0.0061163353 0.050335485 -0.018549575 0.035611663 0.04663164
0.021514192 0.023755241 0.005468534 -0.0038512188

layers.2.bias f4 [6]
00000000: 9137 86b5 ac37 86b5 d535 86b5 9837 86b5
00000010: b537 86b5 a737 86b5
-9.99995e-07 -9.999981e-07 -9.999445e-07 -9.999958e-07 -9.999991e-07 -9.999975e-07

layers.0.weight f4 [6, 8]
00000000: 40bb ed3c 87ae 09bc 2400 82bb 3f79 f13c
00000010: 24f2 863b c0ac 2abc b0b3 343b 7ff6 5abc
00000020: e55e 4fbc 739c 8e3c 99c4 ac3c f5d2 c73b
00000030: 6384 c6b9 701d b3bc 524f 1d3b 2286 453c
00000040: 947f e73b 13ae 513b 2295 a3bc c899 96ba
00000050: 1e18 ae3a 71a9 a3bc 3d78 e8bc feb6 f73a
00000060: 48b1 2e3d a4e1 183b c3ce 783c 60f5 2c3c
00000070: c25c 26bc 438b 31b9 dae8 483c 910c 4f3a
00000080: a316 4a3c 5154 31bb 2808 763b c1db d73b
00000090: 8943 983a 0c41 3e3c 9a25 833b 6021 b1bc
000000a0: dc06 a9bc 14ca 103b b0c6 aebb e707 fa3c
000000b0: 0478 673a f356 af3c bc96 e1bc b9d0 cebb
0.029019952 -0.008403427 -0.003967302 0.02947676 0.004118221 -0.010417163 0.0027572922 -0.013364433
-0.012656902 0.017408585 0.021089839 0.006098146 -0.0003786414 -0.021864623 0.0024003577 0.012055906
0.007064769 0.0031994625 -0.019968573 -0.0011489922 0.0013282334 -0.019978257 -0.028377647 0.001889914
0.042649537 0.0023327852 0.015186015 0.010556549 -0.010153951 -0.00016931914 0.012262547 0.0007898296
0.012334499 -0.0027058313 0.0037541483 0.006587476 0.0011616807 0.011612188 0.004002285 -0.02162236
-0.020633154 0.0022093104 -0.005333744 0.030521346 0.00088298344 0.021403765 -0.027537696 -0.006311503

layers.0.bias f4 [6]
00000000: ab31 86b5 a230 86b5 0000 0000 ee32 8635
00000010: 8f35 86b5 0000 0000
-9.998233e-07 -9.997932e-07 0.0 9.9986e-07 -9.999366e-07 0.0

layers.2.weight f4 [6, 6]
00000000: 59ee a1bc 5bda aebc 7644 803c 0da8 cb3c
00000010: 384e 59bb de0c fc3b 9e6b 21bc dbfb 05bc
00000020: 68b1 0abc bc7f 83bb 5836 c73b 6b4c 32bc
00000030: 50f0 b5bc bdf3 a6bc 4417 57bc c43d 163c
00000040: 3ea3 13bc 88c8 10ba 4520 dc3c 3534 d1bb
00000050: 6363 9d3c 5047 b0bc 719e f1bb f7c9 063c
00000060: 3290 6b3b 27a7 f83c 669a b3bc c0a8 423c
00000070: f6ef b23c 210f ec3a df22 bcbc 7171 55bc
00000080: 4180 b33c e2fd b73c 78b2 22bd 5846 4a3d
-0.019766973 -0.021344354 0.015657645 0.024860406 -0.0033158194 0.0076919636 -0.009852318 -0.008177723
-0.0084651485 -0.00401303 0.0060794763 -0.010882477 -0.022209316 -0.020379895 -0.013128106 0.0091699995
-0.009011088 -0.00055230455 0.026870856 -0.0063843974 0.01921243 -0.02151838 -0.007373624 0.008226863
0.0035944101 0.030353142 -0.021924209 0.011881053 0.021842938 0.001800988 -0.022965847 -0.013027535
0.021911742 0.022459928 -0.039720982 0.04938349

layers.2.bias f4 [6]
00000000: ef36 8635 a437 86b5 a037 86b5 a037 86b5
00000010: a737 86b5 9937 8635
9.999766e-07 -9.999972e-07 -9.999967e-07 -9.999967e-07 -9.999975e-07 9.999959e-07

layers.0.weight f4 [6, 8]
00000000: 895b 1bbc 36aa 7dbc b3d8 c7b8 f393 9b3b
00000010: 9b25 3e3b 0f33 ea3c 1801 763c efe6 60b9
00000020: 4df7 babc df4a 25bb 977e 373b 8a03 13bc
00000030: a566 ba3b d9b7 203d b5be a0bc 6088 7abc
00000040: 2826 19bc 32f1 f1bc 32d2 523c 07a4 78bb
00000050: c40c b73c bc9c 75bc 6c11 e3bc 3745 113c
00000060: 89a8 ff3c b911 1f3b a28c 2abc f18e 223a
00000070: be6a 09bc b6b8 fb3c da8e cebc 2902 993c
00000080: 3f91 b2bc dfd7 853c 4026 093c 3e15 413d
00000090: da65 1d3d 2f77 cebc 6367 fd3b 7e9a aabc
000000a0: aab5 2fbc 8895 1b3d 2371 95ba 1546 e139
000000b0: 5f54 6dbc 9563 06bd 039a 73bc f080 04bd
-0.009482273 -0.015482476 -9.529423e-05 0.0047478615 0.0029014114 0.0285888 0.015014909 -0.00021448334
-0.022823 -0.0025221629 0.0027999037 -0.008973012 0.0056885057 0.03923783 -0.019622186 -0.015291303
-0.009347476 -0.029533956 0.012867497 -0.0037939565 0.022344954 -0.014990982 -0.027718268 0.0088666
0.031208294 0.0024272038 -0.010409506 0.00062011095 -0.008387266 0.030727725 -0.025214601 0.018677788
-0.021797774 0.016338287 0.008370936 0.0471394 0.03842721 -0.025203316 0.007733272 -0.02082562
-0.010724464 0.0379844 -0.0011401515 0.0004296756 -0.014485448 -0.032809813 -0.014868262 -0.032349527

layers.0.bias f4 [6]
00000000: c229 86b5 4926 8635 0000 0000 ae31 8635
00000010: d8e9 8535 7726 86b5
-9.995931e-07 9.99492e-07 0.0 9.998237e-07 9.97733e-07 -9.994973e-07
